test_models_q_network.pth (torch, 111249 bytes, 8 tensors)

network.0.weight f4 [128, 12]
000000 05 50 66 3d a7 7c 30 3d 30 4c c6 bd be 10 e5 bc
       0.056228656 0.043087628 -0.096825 -0.027962085
000010 15 23 19 be 72 19 79 be 33 4b 61 bd 21 f6 38 be
       -0.14954789 -0.24326113 -0.055003356 -0.1806264
000020 39 5d 3e be 6e 89 83 3d 2e ed 16 bd 3c cc e0 bd
       -0.18590249 0.06422697 -0.036847286 -0.109764546
000030 e8 7c b4 3c 16 8b 4b 3d 5d 74 3e 3e 30 aa dc bd
       0.022032216 0.04969319 0.18599077 -0.10774648
000040 13 55 6c bd c3 1f 55 be 4c b9 1c 3d 68 b1 86 3e
       -0.05769832 -0.20812897 0.03826265 0.26307225
000050 47 33 58 be 8d 1a 4c be e3 01 3f 3d a9 c2 7f 3d
       -0.21113311 -0.19932003 0.04663266 0.0624415
000060 1f 1e 09 3e 7d af 0f be e2 3b 97 3c 5f 78 0e ba
       0.13390397 -0.14031787 0.018461172 -0.0005434807
000070 ea 69 87 3e 86 8c 29 be 43 1c 22 bd 07 ef 6c be
       0.26447994 -0.16557512 -0.039577734 -0.23138057
000080 ae 2c 23 3e 17 57 fe 3d 1a 54 2f be 09 30 92 3e
       0.15935013 0.12418955 -0.17121926 0.28552273
000090 ba dc fd 3d cf d8 8f 3e 0c 2a ed 3d 3d 31 64 3e
       0.12395616 0.280951 0.115802854 0.22284408
0000a0 46 ec 85 3e 7f 94 59 3e cf cc 5a 3e 06 4b 5c 3e
       0.26156825 0.21248053 0.21367191 0.21512994
0000b0 83 82 83 3e 66 ec 3d bc 7b 29 58 be b1 4d 89 be
       0.2568551 -0.011592006 -0.21109574 -0.26817086
0000c0 7d c6 39 3e 08 ae 8c 3e 26 5b 2e be 55 90 87 be
       0.18142124 0.27476525 -0.17026958 -0.26477304
0000d0 b8 46 0c bd fe e8 f9 bd c2 47 36 ba 50 4d 19 3d
       -0.03424713 -0.12202643 -0.0006953442 0.037427247
0000e0 4a c9 f0 3d 27 ed 61 3e 06 9d b2 3d 0f 06 c4 3c
       0.11757143 0.22063123 0.08721356 0.02392867
0000f0 7a ce fd 3d 71 b7 2b be ee 80 65 bd a1 44 6b 3e
       0.12392898 -0.16769196 -0.05603116 0.22975399
000100 e6 fa 76 be 5c b6 70 3d 91 c6 8a 3e 86 49 7f 3e
       -0.24119148 0.05876766 0.2710462 0.2493039
000110 b4 9e 90 be 9a 06 6b 3e 57 7d 70 3e ca a5 2e 3e
       -0.2824608 0.22951737 0.23485313 0.17055431
000120 fe b7 fc bd 43 35 b4 3d 5d f6 62 be 9c d2 b5 bd
       -0.12339781 0.08799221 -0.22164293 -0.08878061
000130 1b f0 1a bc 1d 3e 11 3d 05 27 90 3e 68 14 fb 3b
       -0.00945666 0.035459626 0.2815477 0.0076623447
000140 57 f0 00 bd 75 a3 8f 3e 50 68 93 3e b5 9a de bd
       -0.031479206 0.28054395 0.28790522 -0.10869352
000150 23 4d 6f 3e 6c 12 58 be 03 76 6e 3e 8e e6 aa 3d
       0.23369269 -0.21100777 0.23287205 0.08344756
000160 c8 95 68 be 0d 06 89 bd 20 8c 86 3e 30 44 08 be
       -0.22713387 -0.06690607 0.26278782 -0.13307261
000170 02 20 b3 3d 16 fb 02 be 83 b0 86 3e d0 d6 8f 3e
       0.087463394 -0.12791094 0.26306543 0.28093576
000180 00 60 60 be 0b 12 4c 3d ab ee 88 3e a7 98 15 3e
       -0.21911621 0.049821895 0.2674459 0.14609013
000190 28 57 0e be f3 c7 20 bd 9f 21 a6 3d 28 c8 8c 3e
       -0.13900435 -0.039253186 0.081118815 0.27496457
0001a0 04 6e db 3d 3d b5 ba 3c 8d 86 c2 bc 07 70 91 3e
       0.10714343 0.0227915 -0.0237458 0.28405783
0001b0 78 b3 b8 bc 93 84 cc bc 76 0b d1 bd 51 21 68 be
       -0.022546515 -0.02496556 -0.10207264 -0.22668959
0001c0 f1 13 8e be 8d 90 05 be b0 83 7b 3d 5f f7 5c bd
       -0.2774959 -0.13043423 0.061404884 -0.05394685
0001d0 c9 4e 5c 3d 89 96 86 3e 11 05 78 3e cb de 83 3e
       0.053786073 0.26286724 0.24220683 0.25755915
0001e0 cf 41 0b be f1 cc c9 bd 22 c1 1a be 0a b2 85 3e
       -0.13599323 -0.098535426 -0.15112737 0.26112396
0001f0 56 39 17 3e 6d 34 dd bd 81 39 1d bd b3 76 ca bd
       0.14767966 -0.10801015 -0.038384918 -0.09885921
000200 28 fa 9a 3d 4e 69 d8 3c 91 08 10 be 4e 7e 90 be
       0.07567245 0.0264174 -0.14065768 -0.28221363
000210 9d 8c 8b 3e a8 a6 c9 3d 87 da 18 bd 67 9c 81 be
       0.27255717 0.0984624 -0.03731778 -0.25314638
000220 66 87 31 3e 5a 72 16 3e 4a 73 e1 3d b9 95 bc bd
       0.17336807 0.14692059 0.11008318 -0.09208245
000230 66 97 55 3d 6c 2c b4 bd 87 b7 69 be 7a 2a 86 3d
       0.052146338 -0.08797535 -0.22823916 0.065510705
000240 02 93 8d 3e fa 85 39 3e 24 05 fd bd 5f c7 1e bd
       0.2765122 0.18117514 -0.12354496 -0.038764354
000250 0f 9b a0 3c 7a 80 30 be a5 d7 67 be 3a 3f 30 be
       0.019605188 -0.1723651 -0.22640856 -0.17211619
000260 c3 c2 fa 3d 79 fe 51 3e a5 93 ea bc 49 a0 13 be
       0.12244179 0.2050723 -0.028634856 -0.14416613
000270 d6 82 37 3e db 91 1d be 89 f5 19 3c 6d 02 24 be
       0.17921004 -0.1538767 0.009396919 -0.1601655
000280 b5 44 b5 3d 8e c9 88 be 65 1c 03 3e 09 46 06 3e
       0.088509955 -0.26716274 0.128038 0.13112654
000290 9b 08 6d 3e d6 4d 0e be 1f 78 fa bd 31 1c 73 bd
       0.23147814 -0.1389688 -0.122299425 -0.059353057
0002a0 63 74 1d be 95 42 80 3e 51 af 4b bd 2e 50 1a be
       -0.1537643 0.25050798 -0.04972774 -0.15069649
0002b0 6b ca 65 3e 21 15 b1 bd 39 ed 44 be 1d 5a 41 3c
       0.22440498 -0.08646608 -0.19231118 0.01180127
0002c0 76 11 94 bd b9 d3 83 be 0e 80 23 3e 3d 1a a0 bd
       -0.07229893 -0.2574747 0.15966818 -0.078175046
0002d0 62 8f 4d 3d ef 09 40 be a9 3d a7 bd 03 ae 1e 3e
       0.05018557 -0.1875379 -0.081660576 0.15496068
0002e0 d8 8c d4 bd 16 b0 f3 bd f5 01 22 be 00 17 8c 3e
       -0.10378426 -0.1189882 -0.15821059 0.27361298
0002f0 2d ff d2 bd 60 1e f0 3d 9e 53 bd 3c 35 b9 1c be
       -0.10302577 0.117245436 0.02311116 -0.15305026
000300 d9 1d ba 3d 32 7b 34 3e 76 1f 92 bc aa ec e8 3d
       0.09087724 0.1762512 -0.017837267 0.11373265
000310 af e1 8d bd 4a 9d 13 3e dc 10 86 be 7d 8e a3 bd
       -0.06927811 0.1441547 -0.26184738 -0.07986162
000320 40 88 50 3e 90 b0 03 3e cc b4 20 be 4a 18 83 3c
       0.20364475 0.12860322 -0.15693969 0.016002793
000330 16 b2 62 be 5e f1 ca bc 3f 03 96 3d 65 60 02 be
       -0.22138247 -0.024773296 0.07324838 -0.12732084
000340 f5 ac b5 3d 7f fd 11 be 1f ee 19 3e 63 96 14 3e
       0.088708796 -0.14256857 0.15032242 0.14510493
000350 bb fb 8f 3e ae 9d 49 be 73 c3 81 3e c6 c8 3c be
       0.28121743 -0.19689056 0.25344428 -0.18435964
000360 86 e4 41 be 46 6a 03 3d ad 36 4b be 4a 2e db bc
       -0.18934831 0.032083772 -0.19845076 -0.02675547
000370 65 21 22 be 54 16 40 be 3d 57 46 3e 98 1d 07 be
       -0.15833052 -0.18758518 0.19369216 -0.13194883
000380 30 70 98 bd e3 78 11 be 09 3a 8a be a1 cb 5e be
       -0.07443273 -0.14206271 -0.26997402 -0.21757366
000390 28 72 ff 3d f3 df 72 be 0d c7 8b 3e cf ac 84 be
       0.124729455 -0.23718242 0.273003 -0.25913092
0003a0 04 3a 0c 3e 7c ab d8 3c cd 5c 8c 3e 13 60 3e 3e
       0.13694006 0.026448958 0.2741455 0.18591337
0003b0 a7 03 ef 3c 53 e7 88 be 34 6e 4e be d0 ae 00 3d
       0.029176546 -0.26738986 -0.20159227 0.031416714
0003c0 29 f4 28 be ef e1 8b bd ad 06 fb 3d ae 92 f9 3d
       -0.1649939 -0.06830203 0.12257133 0.1218618
0003d0 7d 53 9f 3a f4 6e c4 3d 4b 06 51 be 48 a7 73 3e
       0.0012155619 0.09591475 -0.20412557 0.23794281
0003e0 d3 6b 8f 3e 27 fd 5b be 08 57 51 be 48 a4 ed 3d
       0.2801195 -0.21483289 -0.20443356 0.116036
0003f0 ee b8 82 be 3e 2e 83 be fd 28 fa 3c ff e8 2e 3e
       -0.25531715 -0.25621217 0.030537123 0.17081068

network.0.bias f4 [128]
000000 7a 97 85 3e 7f a0 81 3e 7c c1 90 3e 69 10 c0 3d
       0.2609213 0.2531776 0.28272617 0.0937813
000010 75 3a cc bc 36 ba 6d 3e 12 82 5e be e8 88 1b be
       -0.024930218 0.23215565 -0.21729305 -0.15188944
000020 f2 de 30 3d d8 8a c0 bc 8f 45 08 be a5 fb f0 bd
       0.043181367 -0.023503706 -0.13307784 -0.117667474
000030 35 b4 4a 3e fd 7b b2 3d df 26 d8 bd c4 38 77 be
       0.19795306 0.08715055 -0.10554289 -0.24142748
000040 6f 83 8b 3e a2 24 bd 3c 18 82 71 3d d9 b4 da bd
       0.27248713 0.023088757 0.058961958 -0.10679025
000050 fc a7 5a 3e 8a 73 14 3d 57 b4 8b bd a2 7f b7 bd
       0.21353143 0.036243 -0.068215065 -0.08959891
000060 08 e1 16 3e f2 40 8f 3e 21 b1 3e 3c f8 9b 4e 3e
       0.1473428 0.27979237 0.0116389105 0.20176685
000070 0a 60 86 be 4e dc a4 3a c2 56 89 be ca 8f 3e bc
       -0.26245147 0.0012577863 -0.26824003 -0.011630962
000080 5d b6 67 3e 71 26 35 3e 9f 50 3f 3e 01 cc cd 3c
       0.2262816 0.17690445 0.18683098 0.02512169
000090 38 a2 e7 bd 9e 45 0f 3c 86 20 f3 3d cf 01 85 38
       -0.11310238 0.008744625 0.11871438 6.342271e-05
0000a0 12 ba 59 be 5a 93 34 3d d4 e8 8b be ff 75 0e be
       -0.21262386 0.044085838 -0.2732607 -0.139122
0000b0 dc 92 08 be 33 e0 09 be 06 d0 14 bd c8 eb 51 3e
       -0.13337272 -0.13464431 -0.0363312 0.205001
0000c0 6c 31 42 3e b9 86 82 3a 1f 0e 42 be 1c 97 55 bc
       0.18964165 0.0009958363 -0.189507 -0.013036516
0000d0 59 1b ad 3d 0c 5e 93 be ef 44 1b 3e cf aa 92 3e
       0.08452482 -0.2878269 0.15163015 0.28645942
0000e0 13 80 67 be 18 55 86 be ac 87 f7 bd 62 2d d3 bd
       -0.2260745 -0.26236796 -0.12086424 -0.103113905
0000f0 a5 5e c3 3d 6c a7 0b 3e 67 f4 34 be 9d 07 55 3e
       0.095395364 0.13638085 -0.17671357 0.20803685
000100 a5 fb f4 bd 3c 26 01 3e 58 79 5b bd 05 88 65 3e
       -0.1196206 0.12612242 -0.05358252 0.22415169
000110 28 48 46 be ec 05 9b 3d ef 90 66 3d c2 62 f8 3b
       -0.19363463 0.07569489 0.056290563 0.007580132
000120 52 e7 81 3e 76 8e 49 be 7b 8c 9f bd b5 26 ba bc
       0.25371796 -0.19683251 -0.077904664 -0.022723535
000130 56 6d 89 3e 59 c3 42 be 57 27 16 3e 58 a4 0a be
       0.2684123 -0.19019832 0.14663444 -0.13539255
000140 0a 8e 0c 3e 30 dc 90 3e 52 1b 5e 3e a5 e8 7a be
       0.13726059 0.2829299 0.2169011 -0.2450281
000150 6a 1f 26 3e f7 86 f1 3d b7 8d 4e be a0 b6 02 3e
       0.16222921 0.117933206 -0.20171247 0.12764978
000160 b3 23 5a be ee 5e 74 bd e4 c2 48 be b6 08 e0 bd
       -0.2130268 -0.059660845 -0.19605595 -0.109391615
000170 2d 45 ff bd 33 61 3c 3d 9a 79 ac bd 07 9a 1b 3e
       -0.12464366 0.045991134 -0.08421631 0.15195476
000180 a3 ee 75 3e 63 ee 88 be 79 e0 f4 3c d6 0c 88 bd
       0.24016814 -0.26744375 0.029892193 -0.06643073
000190 68 48 83 bd d5 96 fe bc b6 21 bb 3c 70 23 72 be
       -0.06410295 -0.031077782 0.022843223 -0.23646331
0001a0 6f 14 f1 3d d4 ad 91 3e 0a a4 18 be 30 3e 45 3e
       0.117714755 0.28452933 -0.14906326 0.19262004
0001b0 39 a6 0b be 8b 5d 74 be f9 a2 60 bd 97 91 87 3d
       -0.13637628 -0.23863809 -0.054842923 0.06619566
0001c0 57 57 08 be 77 06 3a be b2 d2 2f be 8d 00 34 3e
       -0.13314568 -0.18166529 -0.17170218 0.17578335
0001d0 11 58 99 3d 7a 71 73 3e a8 d7 53 be 47 46 1b be
       0.074875005 0.23773757 -0.20687735 -0.15163527
0001e0 37 3b 99 bd d1 f8 77 3c 00 70 87 3e a8 a3 3a 3e
       -0.074819975 0.015135006 0.26452637 0.18226492
0001f0 a3 66 76 be 35 01 3a 3e 6a 22 3a 3d 9e 23 99 bd
       -0.2406259 0.18164523 0.045442976 -0.074774966

network.3.weight f4 [128, 128]
000000 0f d6 0a 3c f4 d5 c4 bc 73 cb 8d bd e8 2d 57 bd
       0.008473887 -0.024027802 -0.069235705 -0.052534014
000010 4d 8d 26 3b ba 21 16 bd a3 65 76 3d 88 f0 eb 3c
       0.0025413812 -0.036653258 0.060155522 0.028801218
000020 24 71 a9 bd da d3 73 bb f8 30 00 3d e4 80 0d 3d
       -0.08273533 -0.003720513 0.0312967 0.034546748
000030 8e 47 73 bd 29 84 83 bd 44 61 32 3c 40 df 1f 3d
       -0.05939441 -0.06421692 0.010887448 0.039031267
000040 76 9e 1f 3d f5 0e 94 bd 80 b1 0e bd c7 99 41 bd
       0.03896948 -0.07229415 -0.034837246 -0.047265794
000050 76 2e 04 3d bb c9 b4 bc c7 f5 11 bd 72 7d aa 3d
       0.03227087 -0.022068849 -0.035634782 0.08324708
000060 99 b3 e9 3b 23 75 ce bc 0d 4b ff 3a 7d 6d 31 bd
       0.0071320054 -0.02520234 0.0019477323 -0.043317307
000070 0d f7 d1 3c 6f 6b 53 bd 77 93 b4 3d 50 64 dc 3b
       0.025630498 -0.05161613 0.08817189 0.0067258254
000080 7d 32 7f 3d d0 ba 82 3d 43 ae a2 bd e0 49 71 bd
       0.06230401 0.06383288 -0.07943394 -0.058908343
000090 24 cf aa bd d2 0c 8f 3d 6d 37 fb 3c 7b 47 80 3d
       -0.0834029 0.06984867 0.030666078 0.06263634
0000a0 cf d2 45 3c 9e a2 58 bd ef 8e 72 bb bd 4f 8b bd
       0.0120741865 -0.05288946 -0.0037011465 -0.06802318
0000b0 69 09 aa 3d 16 0a 59 3d 20 37 cb bc 4a 1c 38 3d
       0.08302576 0.052988134 -0.02480656 0.044948854
0000c0 96 90 5e 3d 47 db 89 bd 22 77 4d bd fe 65 93 3d
       0.054337107 -0.06731277 -0.050162442 0.07197188
0000d0 b9 77 5d 3d 08 d0 89 3c f6 74 39 3c ea b6 b1 bd
       0.054069255 0.01682283 0.01131939 -0.08677466
0000e0 d9 eb 6d 3d a0 46 fc 3c 0d 5f 8b 3d 42 bb 9a 3c
       0.05808625 0.030795395 0.06805239 0.01888812
0000f0 7b e9 86 3c 8b c4 61 3d db e1 0f 3c 06 8c 30 3d
       0.016468754 0.05511908 0.0087818755 0.043102287
000100 0a 7b 86 3d df 5e 9b bd 84 7e 0f bd 6c 3a af bd
       0.065664366 -0.075864546 -0.035032764 -0.08556065
000110 88 9b 94 bd ff e9 85 3c 5b ea 06 3d 1b eb 88 bd
       -0.07256228 0.01634693 0.032938343 -0.06685468
000120 79 65 78 bd 1c 9c a4 bd 6f 4d a9 3d 33 01 16 bb
       -0.060643647 -0.08037588 0.082667224 -0.0022888898
000130 1b 7d 6d 3d b7 70 94 3b f0 c9 ac bd 1e 8b 5c bd
       0.057980638 0.004530038 -0.08436954 -0.05384361
000140 22 e7 b2 bd 14 46 c4 3c 8b d2 78 3d 5a 6a 7b bd
       -0.08735491 0.023959197 0.060747664 -0.06138072
000150 c6 6d e0 3c 17 be 0b 3d 4d 27 7a 3c bb 16 34 bd
       0.027396094 0.03411683 0.015268159 -0.04396699
000160 bb 61 a5 3c 06 f5 39 bd 25 48 7f bd 08 00 0d 3d
       0.020188203 -0.04539969 -0.06232466 0.034423858
000170 88 4e ac 3d d2 82 a3 3c ad 73 f9 3c b9 c1 94 3c
       0.08413416 0.01995984 0.030450666 0.01815878
000180 7e 21 8d 3d 0f 2c 88 bd f7 be 97 bd 96 51 9e 3d
       0.06891154 -0.066490285 -0.074094705 0.07730405
000190 81 32 aa bc 03 d5 8e 3d 44 4d ed bc b7 73 21 3d
       -0.020776035 0.069742225 -0.028967507 0.039416995
0001a0 6a 14 29 bd c9 47 ab 3d 1c 33 b4 3d 9d e8 68 bc
       -0.041279234 0.08363301 0.08798811 -0.014215616
0001b0 02 08 5b bd 59 9c 91 bd d0 f0 97 3d 4f 96 08 3d
       -0.053474434 -0.07109899 0.07418978 0.03334647
0001c0 e2 27 5b 3c 3e bb aa 3c 8e 3f 43 3d 9b 9f 0b 3d
       0.013376208 0.020841237 0.047668032 0.03408776
0001d0 3e f7 81 bd e7 77 ac 3d 4f 88 84 bd dc d3 3f 3b
       -0.06345986 0.08421307 -0.06471311 0.0029270565
0001e0 00 d9 0e 3d 71 53 99 3d 6c 4f f7 3c ef c5 22 bc
       0.034874916 0.07486618 0.030189238 -0.009934886
0001f0 73 f5 79 bc 97 dc 53 3d c7 82 7d 3d 55 59 87 bd
       -0.015256274 0.051724043 0.061892297 -0.066088356
000200 8c fe 5f 3d 78 47 a6 3d 54 13 86 bd 7e 16 66 3d
       0.054686114 0.081191 -0.06546655 0.056173794
000210 7f 66 cc bc 69 4d d6 3b 51 63 93 3d 2f 25 9d 3c
       -0.024951218 0.0065399897 0.071966775 0.01918277
000220 14 84 f3 bc d1 1f f9 bc 59 a2 aa 3d 7a fd 82 3a
       -0.029726066 -0.030410679 0.083317466 0.0009993755
000230 84 8c 78 3d 3c f2 e2 3c 4c 1e a7 bd 22 56 ad 3c
       0.06068088 0.027703397 -0.081600755 0.021159235
000240 e2 95 81 3d 95 b7 87 3c 01 52 81 bd fd c9 87 3c
       0.06327416 0.01656703 -0.06314469 0.016575808
000250 da 16 9b 3d d8 c5 16 3d 9e 98 36 3d 1a 27 a7 bd
       0.07572718 0.036809772 0.04457914 -0.08161755
000260 b7 19 4d 3d 72 62 a8 bd 6b 2e aa bd bf 0e 1a 3d
       0.05007335 -0.08221902 -0.08309635 0.03761172
000270 e1 4a 7a 3c c2 ef 6f 3d a2 07 09 bd 0d 19 21 bd
       0.015276642 0.05857826 -0.033454545 -0.03933053
000280 cd e1 6d bb 1b 88 2b bd 25 33 2c 3d 54 f1 8b 3d
       -0.0036297918 -0.041877847 0.042040963 0.06833139
000290 5a 8c 87 bd 8a ba 53 bd d5 a8 ae 3d 9b d4 dd bc
       -0.06618567 -0.05169157 0.08528296 -0.027078917
0002a0 9d 32 11 bc a6 59 97 3b 0b f7 2d 3c 57 6d 34 3d
       -0.008862165 0.004618841 0.010617982 0.044049587
0002b0 ca d5 a5 3d ef 7d 2e bd ee 8f ee 3c 90 fc 8c bd
       0.08097418 -0.04260057 0.029121365 -0.0688411
0002c0 35 6f 43 3c 77 9f 67 3d 3e 62 5f 3c 6e ca df bc
       0.011928369 0.056548562 0.013634263 -0.027318206
0002d0 24 6e c8 3a b6 c9 f2 bb b5 45 43 bc e1 1b 71 3c
       0.0015291614 -0.0074092997 -0.011918475 0.0147161195
0002e0 4a 9d 30 3d c2 79 d6 bc d6 25 b8 bb a6 25 a9 3d
       0.043118753 -0.026181106 -0.005619745 0.08259134
0002f0 e5 8a 95 bd 60 c7 6d 3d 89 98 ac bd 36 f0 ae bc
       -0.07301883 0.058051467 -0.08427531 -0.021354776
000300 43 b1 0d bd f7 a1 47 bd 01 e7 74 bd 41 38 a1 3c
       -0.034592878 -0.048738446 -0.059790615 0.019680144
000310 90 5e 68 3d bf af 14 3d 0d d7 6d 3d 1e 53 48 bd
       0.056730807 0.036300417 0.058066417 -0.04890739
000320 d5 e1 b9 bc fb eb b3 3d b6 60 69 3d 39 7b 6a bc
       -0.022690693 0.08785244 0.056976996 -0.014311605
000330 f2 16 a7 bc 1e 73 65 bd 33 60 61 3c 5d d6 90 3d
       -0.020396683 -0.056017987 0.013755846 0.070721366
000340 26 ec 9c 3a 42 fa 44 bd 82 60 ee bc fa 89 06 bc
       0.0011972233 -0.048090227 -0.029098753 -0.008211607
000350 50 60 15 bd ad 3e 8b bd f4 9a 03 3d 86 e3 0d 3d
       -0.036468804 -0.06799064 0.032130197 0.03464081
000360 c6 70 26 bd 3b 79 25 bd d3 d7 a6 bd 18 27 41 bc
       -0.040634893 -0.040398818 -0.08146634 -0.011789106
000370 92 93 cd bb 20 37 8a bd be fa 73 3d 74 bd 97 3d
       -0.0062736953 -0.067487955 0.0595653 0.07409182
000380 71 6d 21 bb b2 77 8f 3d a4 ac 9a bd 34 0e 53 3d
       -0.0024631883 0.07005252 -0.0755246 0.051527217
000390 a7 70 ce 3c c0 45 9f 3d 70 25 a7 3d cc 2f 8d 3d
       0.025200201 0.07776976 0.081614375 0.06893882
0003a0 cb 8b 25 bd ed 1a dd bb 91 2c a8 3d 31 06 86 3c
       -0.04041652 -0.0067475946 0.08211625 0.016360374
0003b0 37 23 8a 3d e0 09 83 3d 7b c1 d3 bc d5 0f 4a bd
       0.06744998 0.06398368 -0.025849095 -0.049331505
0003c0 63 6e 00 bc 11 59 9a 3d 78 2c f2 3c 23 5d 33 bd
       -0.007838818 0.07536519 0.02956222 -0.043789994
0003d0 1d 1b 70 3d 52 1a 28 bd 87 99 57 3d 2f ed d8 3c
       0.058619607 -0.041040726 0.05263665 0.026480285
0003e0 f0 2c 5a 3d ff fb 0b bb 32 92 8f bc 81 8b 9c bd
       0.053265512 -0.0021359918 -0.017525766 -0.07643796
0003f0 2f 08 bc bc e5 2f 76 3c 53 cf 89 bc d9 53 b3 bd
       -0.022953121 0.015026067 -0.016822493 -0.08756227

network.3.bias f4 [128]
000000 9b ac 9b 3c 95 dc d1 3c 03 98 9e bd 33 9b 8d 3d
       0.019003203 0.025617877 -0.07743838 0.069143675
000010 99 8b bb bc d9 9f 6c 3c 00 e6 a6 3d be 4d 12 3d
       -0.022893714 0.0144424075 0.08149338 0.035718672
000020 bf 43 7d bd 69 f6 9f bb 05 4d a4 3d 82 41 ac 3d
       -0.061832186 -0.0048816693 0.08022503 0.08410932
000030 4b 42 a3 bd 37 8e 4a 3d 38 a0 2e bd 8a 1f 29 bd
       -0.07971629 0.049452033 -0.042633265 -0.041289844
000040 7c da f6 3b c0 33 42 bd cb 38 49 bd b7 63 7e bd
       0.0075333696 -0.047412634 -0.049126428 -0.062106814
000050 22 04 80 3d ee a5 19 bd b4 f6 72 bc 81 bf 9b 3d
       0.06250788 -0.03751176 -0.014829326 0.07604886
000060 e3 0b 8c bd 6d 65 6e bd 19 9d ab 3d 33 f4 43 3d
       -0.06838205 -0.058202196 0.083795734 0.04784031
000070 6c 08 9a bd c9 87 b1 bd 78 1c d5 3a b3 94 7b 3d
       -0.075211376 -0.08668477 0.0016259095 0.061421108
000080 45 69 26 3d 12 cf 5f bd 52 14 cc bc 13 24 28 bd
       0.040627737 -0.054640837 -0.024912033 -0.041050028
000090 f9 a6 85 bc f7 5c a8 3c 3c f2 27 3d 04 56 06 3d
       -0.01631497 0.020552142 0.041002497 0.032796875
0000a0 e2 08 33 3d 6e 14 a0 bd ac db 49 bc e9 3a 74 3d
       0.043709643 -0.07816397 -0.01232044 0.059626494
0000b0 b4 53 59 3d 43 96 9b bd 79 7f 0c 3c d8 f7 a7 3d
       0.05305834 -0.075970195 0.008575314 0.08201569
0000c0 80 06 73 3d a9 05 6f bd 51 5d 96 3d c0 8e 04 3d
       0.05933237 -0.058355007 0.073420174 0.0323627
0000d0 69 be 88 bd 62 9c 67 3d 62 60 71 bc 73 96 4c 3d
       -0.06676943 0.056545623 -0.014732452 0.049948167
0000e0 11 d1 10 bd be bd a9 bb 5c 26 ac 3d b2 0c 24 3d
       -0.03535563 -0.0051800897 0.08405754 0.04005117
0000f0 72 fe 42 bd e1 dd 24 bd 07 fb 99 3d f0 ef 77 3c
       -0.04760594 -0.040250663 0.07518583 0.015132889
000100 e1 59 a1 3d 2c b1 48 3d 33 8d 6c 3c 94 bd 4f bd
       0.07878471 0.04899709 0.014437961 -0.050717905
000110 db f3 d8 bc e1 57 70 bd 9e ee 13 3d ca 29 b4 3d
       -0.026483467 -0.058677558 0.036116235 0.08797033
000120 32 9a 28 bd 05 3d ad 3d 6e 67 9b 3d 20 b5 94 3d
       -0.041162677 0.08458904 0.07588087 0.07261109
000130 0b 79 a5 3d 80 cf ad bd 4c 08 b4 bd af 0e e5 3b
       0.08079728 -0.08486843 -0.08790645 0.006990276
000140 f7 96 6e 3d 55 bf 77 bd b7 23 bc 3c 62 9c 41 3d
       0.05824944 -0.060485203 0.022966249 0.04726828
000150 0d b2 d8 bc cb 4c 49 3c 83 d2 89 3d 77 b5 83 bd
       -0.026452089 0.012286375 0.06729605 -0.06431096
000160 73 25 75 3d 09 b6 87 3c 89 aa 48 bd 42 58 b1 3d
       0.059850167 0.016566293 -0.04899076 0.08659412
000170 ab 56 a8 bd 23 cd 48 bd 9b da b0 bd 0d 08 7f 3d
       -0.082196556 -0.04902376 -0.08635446 0.062263537
000180 8f 56 6b 3c b1 72 97 3d c4 7c 14 bd fe ef 90 bc
       0.014363899 0.073949225 -0.0362518 -0.017692562
000190 d0 42 19 bd 4e f2 a0 bd 61 b8 48 3d 21 d7 88 bb
       -0.037417233 -0.07858716 0.049003962 -0.004176036
0001a0 b0 fc c4 3c 22 c5 ad 3d 2c cb 89 3d 81 94 ab bd
       0.024046272 0.08484866 0.06728205 -0.08377934
0001b0 b3 35 52 3d 29 75 72 3d 62 34 d8 bc c8 1c 4e 3d
       0.051320743 0.059193764 -0.026392166 0.050320417
0001c0 57 96 99 bc c5 f1 c5 bc c1 9a 9e bd cb f5 af bb
       -0.018748445 -0.024163136 -0.07744361 -0.005369877
0001d0 ad 6c 86 3b 9f 5a a0 bd 24 57 a6 bd 0e 05 0c 3d
       0.0041023106 -0.078297846 -0.081220895 0.034184508
0001e0 2e 9e 1c 3d 69 d1 ec 3c 42 24 96 bd 2f 4e 99 bd
       0.03823679 0.028908448 -0.073311344 -0.074856155
0001f0 0b fa e5 3c a2 e7 b7 3c 50 c6 a6 3b a5 fb 71 bd
       0.028073331 0.022449318 0.0050895587 -0.059077878

network.6.weight f4 [64, 128]
000000 28 39 aa bd 40 b3 98 3c f4 33 63 3c e6 aa 57 bc
       -0.08311683 0.01864016 0.013867367 -0.013163304
000010 5a 5e 83 3c f1 6c ae 3d 68 ed a1 3c 5e 08 2e 3d
       0.016036201 0.08516873 0.019766524 0.04248845
000020 20 dd a3 bd d7 aa d1 bc 24 58 b6 3c f3 45 ac 3d
       -0.080011606 -0.025594158 0.022258826 0.08411779
000030 4b ef 96 bd 5d 43 24 3d c7 73 e1 3c 49 15 a8 3d
       -0.0736986 0.040103305 0.027521027 0.08207185
000040 7a 10 54 bd 33 44 38 3c f4 0f 74 3c 08 96 9b 3d
       -0.051773526 0.011246729 0.014896382 0.075969756
000050 47 92 f1 3c b6 23 ac 3c f5 21 5a 3d ca c8 75 bc
       0.029488696 0.021013122 0.05325504 -0.015001485
000060 26 02 9a 3d 29 6e bc 3c 81 75 99 bc 4f ed d9 bb
       0.07519941 0.023001747 -0.018732788 -0.006650604
000070 b7 b6 91 bd b4 74 1a 3c df 25 c2 bc 84 70 82 3d
       -0.07114928 0.009427238 -0.023699699 0.06369117
000080 bd 0a b5 3c e2 74 28 3d b5 64 44 3c 84 e7 30 bd
       0.022099847 0.041127093 0.011986901 -0.04318954
000090 43 9f 57 3d 3b e3 34 bd b3 58 af bd 77 fd d0 ba
       0.05264212 -0.044162016 -0.0856184 -0.0015944679
0000a0 95 38 ad bd 7c 42 14 3c 3c 69 7b bd 4d 0d 81 bd
       -0.08458058 0.009049054 -0.061379656 -0.06301365
0000b0 9b 43 37 3d 48 cd 57 bd ee 2d 95 bd c8 0d 9d 3c
       0.044742208 -0.052686006 -0.07284151 0.01917161
0000c0 4f fd 70 3d 15 45 64 3d 61 4a 50 bd 9e 9e 8a 3d
       0.058835324 0.055729944 -0.050852183 0.06768535
0000d0 26 da 8e bd 97 93 c9 ba d2 03 5b 3d 9c a1 7a bd
       -0.06975202 -0.0015379068 0.05347044 -0.06118928
0000e0 34 e3 70 3d cf fa 92 3c ac 16 5d bd d4 2a 8b bd
       0.058810428 0.01794186 -0.0539767 -0.06795278
0000f0 62 aa 28 3d 27 bb a0 bd f9 b9 80 bd 6c 07 53 3d
       0.041178115 -0.078481965 -0.062854715 0.05152075
000100 43 b5 20 3d a5 42 48 3d 1c dc 15 3d be 47 60 bc
       0.039235365 0.048891682 0.036586866 -0.01368898
000110 e5 f4 58 3d 37 70 27 3d 16 23 cf 3b 09 2a 23 3c
       0.052967925 0.0408785 0.0063213212 0.009958752
000120 06 6f 7b bd fd af e6 3c 6b 69 54 bd c8 12 9a 3d
       -0.061385177 0.02816009 -0.051858347 0.075231135
000130 8a b5 76 bd bf a9 4f bd a0 b9 ff bb 83 c7 31 ba
       -0.060231723 -0.050698992 -0.0078041106 -0.0006781744
000140 9f f0 25 bd 0c 6d 2f 3d 5e 3b 49 3d 91 61 16 3d
       -0.040512677 0.042828605 0.049128883 0.03671414
000150 0f 37 95 3c 31 b3 8d 3d af f2 7a bd f7 44 92 3d
       0.01821473 0.06918944 -0.061266597 0.0714206
000160 c3 88 bd bc 8b 89 48 3b e9 1b 4c 3d 43 3c 95 bd
       -0.023136502 0.003059956 0.049831305 -0.07286885
000170 07 f8 a2 bd 9f e6 a3 3d 08 c2 27 3d 43 96 5f 3d
       -0.07957464 0.08002972 0.040956527 0.05458666
000180 60 e8 3f bd 9d 16 05 3c 8a f2 06 3d 23 65 89 bd
       -0.04685247 0.008123067 0.032946147 -0.067087434
000190 ee 35 ed 3c 37 17 26 bb 77 e9 7d 3d eb 2e 8f bd
       0.02895638 -0.0025343427 0.061990228 -0.06991371
0001a0 ca a9 03 bc a0 fe 7a bd 08 34 b6 bb ba cc c2 bc
       -0.008036086 -0.061277986 -0.005560402 -0.023779262
0001b0 1e 9a ad 3d 6f 05 c6 3c a7 99 a2 3d f6 63 19 bd
       0.08476661 0.024172513 0.07939463 -0.037448846
0001c0 67 8b 3d bd 55 1d b3 3d 9b a4 38 bd 04 cc a5 bd
       -0.046275523 0.08745829 -0.045078855 -0.080955535
0001d0 b4 f2 94 3d d1 4d 7e 3c 92 ef c7 3b 81 b3 7b 3c
       0.072728544 0.015521483 0.006101557 0.015362621
0001e0 e2 a2 5e 3c cf 02 1b bd a6 7b 8b 3d 0b ca 22 bd
       0.013588639 -0.037844475 0.068106934 -0.039743464
0001f0 a0 b9 24 bd 44 5b f7 3c 80 22 01 3d 30 e4 04 3d
       -0.04021609 0.030194886 0.031527042 0.03244418
000200 65 fb 94 bc 59 01 74 bd 7a 46 59 bc c2 6e 98 3d
       -0.01818628 -0.059571598 -0.013261432 0.074430004
000210 e0 a8 05 bd aa 2a 5a bd cb c9 39 bd d8 4a 8f bb
       -0.032631755 -0.053263344 -0.04535846 -0.0043729357
000220 af f0 a4 bc d1 a1 63 3d f1 43 84 3c bd 71 af 3d
       -0.020134298 0.055574242 0.016145678 0.08566616
000230 3a 19 bb bc 17 0a 2e 3b a4 24 7e bd f6 06 89 bd
       -0.022839177 0.0026556307 -0.062046662 -0.06690781
000240 03 59 36 bd 7c 00 31 bd 1a 0b 99 3d ba 38 19 3d
       -0.044518482 -0.043213353 0.074728206 0.037407614
000250 d3 7a 89 ba 14 f3 09 3d 35 c4 03 bd 36 7e 32 3d
       -0.0010488875 0.033679083 -0.03216954 0.043577395
000260 47 9d 37 bb 32 8f 8a bd ab 7e 81 3d a9 47 85 bd
       -0.0028017329 -0.067655936 0.06322988 -0.06507809
000270 11 0d 91 bd cd c6 e0 3c e4 f7 e2 bc 1b ac 61 3d
       -0.0708257 0.027438546 -0.027706094 0.055095773
000280 2a 4b 81 bd e5 7d a3 3d 2a 2b a0 3d 96 3b a0 bd
       -0.063131645 0.07982997 0.07820733 -0.07823865
000290 9c 2f 28 bd 1b 4f 57 3d 90 92 84 3b 7f e2 5f bc
       -0.04106103 0.052565675 0.004045792 -0.013664841
0002a0 f4 5e f4 bc ab 3e 48 3d da eb 81 3c 29 21 5c 3d
       -0.029830433 0.04888789 0.015859533 0.05374256
0002b0 9f 6f 96 3d c8 52 5a bd ca 51 07 3d fa 28 96 3b
       0.07345509 -0.053301603 0.033036985 0.0045825215
0002c0 15 12 40 bd 30 02 a7 bd 3e 65 69 bc 79 86 7e 3c
       -0.046892244 -0.08154714 -0.014245329 0.0155349905
0002d0 93 37 4c 3d 40 d8 3e 3d da a9 81 bd 8d 44 0e bd
       0.049857687 0.04659295 -0.06331225 -0.034733344
0002e0 04 d7 a6 3d b7 37 27 3d 89 f1 5c bd 13 3f 7f bc
       0.0814648 0.04082462 -0.053941283 -0.015579003
0002f0 7f 58 6c 3d a0 0c 25 3d b1 ad c8 bc 37 1c 82 3d
       0.057701584 0.040295243 -0.024496885 0.06353038
000300 f9 fe 36 3c dc e2 86 bd c7 63 66 bb 5f a5 3c 3d
       0.011169189 -0.06586239 -0.0035154687 0.046056148
000310 99 e6 0a bd 72 01 c0 bc f4 99 97 bc 4b 5f 37 3d
       -0.03391132 -0.02343819 -0.018506028 0.044768613
000320 f1 4e 70 3d 65 ff 87 bd 56 f7 da bc 52 9e 94 3d
       0.058669034 -0.066405095 -0.026729267 0.0725676
000330 e8 d9 e6 bc de 47 d9 3c a8 34 fd 3b 1e 6a a3 bd
       -0.028180078 0.026523527 0.0077272244 -0.079792246
000340 bb 46 be 3b 4e 13 fe 3c e5 2c dc 37 e4 18 40 3c
       0.0058067716 0.031015065 2.624695e-05 0.011724684
000350 95 ac 8f 3d a7 4f 45 bd 4b a9 e6 bc 8e 62 86 3d
       0.07015339 -0.048171666 -0.028156897 0.065617666
000360 20 45 64 3d 5b 6f 01 3d 75 11 46 3d 13 d4 87 bd
       0.055729985 0.031600337 0.048356492 -0.06632247
000370 00 dd f7 bc e3 c9 4d bd c6 4b ce bc 57 67 d0 bc
       -0.030256748 -0.050241362 -0.025182616 -0.025439901
000380 0e 67 4f bb f2 85 83 3d 24 05 3b 3b be 37 ab 3d
       -0.0031647119 0.064220324 0.0028537 0.08360241
000390 76 49 48 bd c4 a4 ea bc cf 0f 66 bd 8a 11 b0 bd
       -0.048898183 -0.02864302 -0.05616742 -0.08597095
0003a0 12 80 7d bd 00 2c 86 bd c9 21 b2 3d f9 13 a7 bd
       -0.061889715 -0.06551361 0.0869785 -0.08158106
0003b0 c2 c1 a7 3d b7 9d 2f bd a8 5a 99 3d 40 22 b3 bd
       0.08191253 -0.042875018 0.074879944 -0.08746767
0003c0 a7 3e 94 3d 47 a2 c2 ba 4d 20 c7 bb af b8 ec 3c
       0.072385125 -0.0014849388 -0.0060768486 0.028896658
0003d0 1f 20 87 3d f9 9c 4f 3a 28 34 7b 3d d4 61 10 3d
       0.065979235 0.0007919814 0.061329037 0.035249546
0003e0 d7 db 94 bd e3 30 f7 3c bd f5 59 bd ff f0 bc 3c
       -0.072684936 0.030174678 -0.05321287 0.023064135
0003f0 df 60 14 3d 1f c0 c4 3c c7 03 39 bc 6f b9 25 bc
       0.036225196 0.024017392 -0.0112924045 -0.010115012

network.6.bias f4 [64]
000000 b1 0d a6 3c dd ed 90 bd 7d 6e e7 bc d8 4b 83 bd
       0.0202702 -0.07076619 -0.028250927 -0.064109504
000010 c8 1c 09 bb 6e 63 c7 bc f7 bc 95 3b e6 34 2b 3d
       -0.0020921696 -0.024339404 0.0045696455 0.041798495
000020 ce e8 84 bc 2b a6 ec bb 7e 9e 7a bd 9a f7 b0 bc
       -0.016224291 -0.007221957 -0.061186306 -0.02160244
000030 c7 0b 37 3d d9 f7 a2 bd 50 8a a1 bd 2e 7a 73 3d
       0.044688966 -0.079574294 -0.07887709 0.05944269
000040 2b 3f bf bc 99 a8 90 bb 75 16 2b 3d 1a 75 5f bd
       -0.02334555 -0.0044146297 0.041769464 -0.054555036
000050 b1 28 ee 3b bb 62 96 3d 2e 5b f7 ba b8 6c 35 3d
       0.0072680344 0.0734305 -0.0018871778 0.044293135
000060 10 8d dc 38 0f 85 d4 3c a2 01 8b 3c fd 13 a7 3d
       0.000105166924 0.025942354 0.016968552 0.08158109
000070 c5 cd d2 3b 1c 8f 9c bd da 8e ed bc f5 16 fd bc
       0.006433221 -0.076444834 -0.028998781 -0.030894736
000080 a6 03 17 bc 89 b2 22 3d f2 74 81 bd 7d 4d 25 bd
       -0.009217178 0.039721046 -0.06321134 -0.0403571
000090 93 8e 8e 3c 3a 4c 7c bd 00 90 58 bc 60 62 7f 3d
       0.017401969 -0.061596133 -0.013217926 0.062349677
0000a0 01 2a e8 3b af 8f 6a bc 54 de 55 bd 23 86 82 bd
       0.0070850854 -0.014316483 -0.05221398 -0.06373241
0000b0 05 f5 a2 bd cf 80 a1 3d f1 07 6e bc 7c fa 88 bc
       -0.0795689 0.078858964 -0.014528261 -0.016721003
0000c0 21 14 83 3d 63 2c 36 bd 4a 9d 93 3b 36 c4 65 3d
       0.06400324 -0.044475924 0.0045048343 0.056095324
0000d0 b9 e9 6b bd 76 0d b3 bd b2 24 9a bd 2b 71 59 3d
       -0.057595942 -0.08742802 -0.0752653 0.05308644
0000e0 e6 e2 e6 bc 8b 4a 9a 3c f6 e5 ec 3c 03 f1 31 3c
       -0.028184365 0.018834373 0.028918248 0.010860684
0000f0 a0 21 e0 bc db a7 23 bd 72 88 7b 3d 3b a2 a4 3d
       -0.027359784 -0.039955 0.06140942 0.080387555

network.8.weight f4 [6, 64]
000000 78 f3 9e bc 48 59 9f bc 78 9c 13 3d 48 f6 9d bd
       -0.019403204 -0.019451752 0.036037892 -0.0771299
000010 b0 73 c0 3d 40 06 ad bc 00 7d 62 bc 80 59 39 3d
       0.09397066 -0.021121144 -0.013823748 0.04525137
000020 b0 d1 15 3d 2a bb 90 3d 5c b1 a1 3d dc 35 55 bd
       0.036576927 0.07066949 0.07895157 -0.052053317
000030 ee b7 bd bd 60 03 98 bd 48 0e e6 3d 60 65 46 3d
       -0.092635974 -0.07422519 0.11233193 0.048436522
000040 78 69 96 bd 38 36 bf bc e4 fd 67 3d c0 ea 0b bb
       -0.07344335 -0.023341283 0.056638613 -0.0021349639
000050 1c 58 a2 bd 3e fe e3 bd d8 19 e9 bc 66 44 d1 bd
       -0.07926962 -0.11132477 -0.028454706 -0.10218124
000060 cc 94 87 3d 74 41 e1 bd 44 c0 60 bd 8a 64 9b 3d
       0.066201776 -0.10998812 -0.05487086 0.07587536
000070 fc 20 99 bd 7e 6f 93 bd b8 71 b9 bd 10 e2 9e bc
       -0.074769944 -0.07199 -0.09054893 -0.019394904
000080 96 07 92 bd 5c 26 8a bd c4 51 ff 3d c0 f3 91 bc
       -0.07130353 -0.06745598 0.124667674 -0.017816424
000090 c8 3a 10 3d 48 1b 22 3d 46 b0 a0 bd 7a ff d8 bd
       0.03521231 0.0395768 -0.078461215 -0.10595603
0000a0 ec f8 57 3d b0 f8 34 bd 52 cf ee 3d c0 3f 4d 3b
       0.052727625 -0.04418248 0.11660637 0.0031318516
0000b0 0c 37 09 bd 00 dc a7 bb 20 e2 ff 3c 98 bb 82 3c
       -0.033499762 -0.0051226616 0.031235754 0.015958592
0000c0 00 e8 ae b9 f2 d7 f9 bd 10 a4 c8 bc a0 8f a1 bd
       -0.0003336072 -0.121993914 -0.024492294 -0.078887224
0000d0 78 7d ee bd 2c 82 0a bd 7c 92 da 3d 0c 73 25 3d
       -0.11645025 -0.033815548 0.10672471 0.04039292
0000e0 8c e4 e8 bd 30 f8 74 3d 20 45 af 3d a8 71 dc 3c
       -0.11371717 0.059807003 0.085581064 0.026909664
0000f0 be d4 e3 3d 4c 04 f5 bd 00 aa 46 bb cc 81 4f 3d
       0.11124562 -0.1196371 -0.003031373 0.050660893
000100 c4 84 57 bd 68 d7 f9 bd 72 e2 8a bd e8 38 be bc
       -0.05261685 -0.121992886 -0.06781472 -0.023220494
000110 e4 12 5e bd 5c 99 ba 3d 58 af 38 bd 7a b0 c7 3d
       -0.054217234 0.09111282 -0.045089096 0.09750457
000120 f0 42 dd 3c 80 b4 34 3b 88 c2 9d 3c d8 55 74 3d
       0.027009457 0.0027573407 0.019257799 0.05965218
000130 16 36 d4 bd 1e 30 b9 bd 80 38 5d 3c 04 3d e0 3d
       -0.103618786 -0.09042381 0.01350224 0.10949138
000140 00 aa 9f bb ec 3e ef 3d 00 3a ec bd d0 17 02 bd
       -0.0048725605 0.11681923 -0.115345 -0.03176099
000150 20 44 25 bc 42 a1 bc bd c0 04 e8 3b 82 0d 8b bd
       -0.010087043 -0.09210445 0.0070806444 -0.06789686
000160 3a c9 b0 bd 50 dd 4b 3d ba d0 93 bd f8 35 a6 3d
       -0.08632131 0.049771607 -0.07217546 0.081157625
000170 e0 29 a9 3c 58 5b 64 bd e8 5a 1e bd 02 24 c1 bd
       0.02064985 -0.055751175 -0.038660914 -0.09430696
000180 b0 43 71 3d 9a d6 d9 bd 9e df b8 bd 72 5d dd 3d
       0.058902442 -0.10636635 -0.090270266 0.10808839
000190 da a8 d7 bd 10 d9 3e 3d 30 1c 86 3d 84 ea ac bd
       -0.10530253 0.046593726 0.06548345 -0.08443168
0001a0 7c 4c 66 3d d0 96 f0 bd f4 bb 54 3d f8 c4 90 bd
       0.056225285 -0.11747515 0.05193706 -0.07068819
0001b0 20 d2 86 3d 0a 5d ff 3d 70 f2 7c bd 30 4f a2 3d
       0.06583047 0.12468918 -0.061754644 0.0792526
0001c0 60 bf 68 bd f0 2d 8b 3c 20 f5 1f bc 7a 55 f0 3d
       -0.056823134 0.016989678 -0.009763032 0.11735053
0001d0 04 cd 3d 3d 60 5e e7 bb 64 31 b5 3d 04 be c1 3d
       0.046338096 -0.007060811 0.08847311 0.09460071
0001e0 a4 0f 18 3d a0 02 dc bb fe 54 9c bd 92 eb 87 3d
       0.03712429 -0.00671418 -0.076333985 0.06636728
0001f0 72 95 cf 3d 0c 07 25 3d c0 8f 28 bc 00 a0 d1 bc
       0.10135926 0.040289924 -0.010288179 -0.02558899
000200 b8 6d ae bd 90 29 47 bd 28 4d 24 3d ec a3 7e bd
       -0.08517021 -0.04862362 0.040112644 -0.062168047
000210 b0 0c 96 3c 16 67 b3 bd d0 88 99 bc ac b6 05 bd
       0.018316597 -0.087598965 -0.018741995 -0.032644913
000220 ec d6 5d 3d 80 b6 2d 3d 44 75 66 bd 40 7a 6d 3b
       0.054160044 0.042410374 -0.056264177 0.0036236197
000230 a0 9f 89 3b 98 86 e8 3c f0 7a 9d 3c 20 b4 e2 3b
       0.004199937 0.028384492 0.01922366 0.006918445
000240 f0 6f c5 bc b0 1a 5d bc e4 0a c1 3d e8 6e 95 bd
       -0.024101228 -0.013495132 0.09425905 -0.07296544
000250 dc 59 b8 3d 4c 03 b3 bd 02 63 92 bd c4 93 8d bd
       0.09001514 -0.08740863 -0.071477905 -0.0691295
000260 1c 44 51 bd 40 2d 5f bc fc 3f 5c bd 60 6e 1a bd
       -0.051090345 -0.013621628 -0.053771958 -0.037702918
000270 20 86 dd 3b 44 cc 4c 3d a8 55 be 3d ec a0 46 bd
       0.0067603737 0.04999949 0.092936814 -0.04849331
000280 70 bb cd bc 40 27 d8 bd 5c 6e 17 3d 6a 16 c8 bd
       -0.025113791 -0.10554361 0.03697048 -0.097699
000290 7e c1 c7 bd a0 7d d9 3b 86 e5 c7 3d 8c ec 4d bd
       -0.097537026 0.00663729 0.09760575 -0.050274417
0002a0 84 9e f7 bd aa a7 d9 3d 20 22 14 3c 60 07 92 3b
       -0.12090781 0.106276825 0.009041339 0.0044564456
0002b0 50 4d a6 3c 20 55 0f 3c e8 78 fd bc 90 58 5f 3d
       0.020300537 0.008748323 -0.030941442 0.05452782
0002c0 18 30 90 bd 88 82 9b bc f2 4c 95 3d 7e f7 f6 bd
       -0.07040423 -0.01898314 0.07290067 -0.12058924
0002d0 30 a8 52 bd 98 54 45 bd 90 5e ab bd 58 6d d0 3c
       -0.051429927 -0.048176378 -0.08367646 0.025442764
0002e0 40 0b a3 bc a8 ba 6d 3d 60 7d 5d 3c d8 18 71 bd
       -0.019902825 0.058039337 0.013518661 -0.058861583
0002f0 00 f1 1d bb 70 34 8f 3c 10 fc 9b 3d a8 81 32 3d
       -0.0024099946 0.017481059 0.076164365 0.04358068
000300 20 7a a1 3d 80 41 1a bb 30 ce 84 bd 70 7f 87 3d
       0.078846216 -0.0023537576 -0.0648464 0.06616104
000310 18 50 9a 3c e8 28 b5 3c 80 cb 55 3c 28 f4 48 3d
       0.01883702 0.022114232 0.013049006 0.04906097
000320 28 0e 65 3d 88 d6 ac 3d 00 54 61 bb a0 fc eb bb
       0.055921704 0.08439356 -0.0034382343 -0.007201746
000330 ec d2 34 bd bc 8c 00 3d 1e 1f 88 bd 30 41 ec bc
       -0.044146463 0.031384215 -0.0664656 -0.028839678
000340 84 bd 8c 3d d8 a7 ce bc 44 48 6e bd 20 bb a3 bb
       0.06872085 -0.025226519 -0.058174387 -0.0049966723
000350 e2 45 83 3d 70 9a 12 3c 80 8a 98 bb 86 64 ff bd
       0.064098135 0.008947954 -0.0046551824 -0.12470345
000360 38 6f 45 bd 20 3d 5c bd be 0c b4 bd 80 44 ee 3c
       -0.04820177 -0.05376923 -0.08791493 0.029085398
000370 f4 f0 62 bd 20 e2 ce bd 30 ce 41 3d 84 92 29 bd
       -0.055405572 -0.10101724 0.047315776 -0.041399494
000380 4c c8 4b bd 40 7c 61 3d 90 db 72 bc 08 7d 9d bd
       -0.049751565 0.055050135 -0.014822856 -0.076898634
000390 e4 d3 2a 3d 28 36 f0 3c 7c 0f 6d 3d e8 a6 b1 bd
       0.04170598 0.029322699 0.057876095 -0.08674413
0003a0 f8 65 df bc c8 6d 0f bd 2c ba ee 3d 10 62 37 bd
       -0.027270302 -0.035016805 0.11656603 -0.044771254
0003b0 54 5a 8b 3d 28 c5 b4 3c f8 c0 99 3d d0 69 13 3d
       0.06804338 0.022066668 0.07507509 0.035989583
0003c0 8c 71 cf bd 8a 2e ff bd f8 d6 36 bd a8 e3 d0 3c
       -0.10129079 -0.124600485 -0.044638604 0.02549918
0003d0 4a fe 97 3d dc 1f ed 3d 38 e3 d1 3c bc 4f c4 3d
       0.07421549 0.11578342 0.025621042 0.095855206
0003e0 e4 e0 c7 bd c6 b9 96 bd 78 64 15 bd 50 e3 27 3d
       -0.09759691 -0.07359652 -0.036472768 0.040988266
0003f0 fc c1 57 bd 20 ec da 3d 64 a6 aa 3d 42 85 bc bd
       -0.052675232 0.106895685 0.08332518 -0.092051044

network.8.bias f4 [6]
000000 f6 c4 b5 3d 80 02 4f 3c ee 0c d1 bd 20 26 15 3c
       0.08875458 0.012634873 -0.10207544 0.009103328
000010 10 3c 7c 3c 60 ff f0 3d
       0.015395179 0.11767459
