test_models_target_network.pth (torch, 111383 bytes, 8 tensors)

network.0.weight f4 [128, 12]
0	0xbe8cf7d5	-0.2753283
1	0x3e7c522e	0.24640724
2	0xbde11c9d	-0.10991786
3	0xbe3c4a7f	-0.18387793
4	0xbe2d0afe	-0.16898724
5	0xbde4254b	-0.111399256
6	0xbce0b675	-0.027430752
7	0x3e6e2652	0.23256806
8	0x3e4223e8	0.1895901
9	0x3d15e4dd	0.036595214
10	0xbe25648a	-0.16151634
11	0x3e0025f2	0.12514475
12	0x3ddb5478	0.107094705
13	0xbcabbfad	-0.020965422
14	0xbdff6079	-0.124695726
15	0x3e74811d	0.23877378
16	0xbe1ff50e	-0.15620825
17	0xbdf4f153	-0.119600914
18	0x3e43be49	0.19115557
19	0x3e093980	0.13400841
20	0x3e6319c1	0.22177793
21	0x3c61e625	0.013787781
22	0xbe0063e7	-0.1253811
23	0x3e2c4dab	0.16826503
24	0xbe474882	-0.19461253
25	0x3d2b5139	0.041825507
26	0xbdaa4db9	-0.08315606
27	0x3d7bcd0c	0.061474845
28	0xbce58f2f	-0.028022377
29	0xbdc9938c	-0.098425955
30	0xbd9f4586	-0.077769324
31	0xbe38fc2e	-0.18064949
32	0x3e71960a	0.23592392
33	0xbe7a036d	-0.2441537
34	0xbcfc6cf0	-0.030813664
35	0x3dba43b8	0.090949476
36	0xbd47f0cf	-0.048813637
37	0xbcbf7761	-0.023372354
38	0x3dc5a52c	0.09650645
39	0x3dcea938	0.1009087
40	0x3e851dc9	0.25999287
41	0xbe50aef8	-0.20379245
42	0x3d27e9b6	0.04099437
43	0x3de5bec3	0.112180255
44	0x3e3d2840	0.18472385
45	0xbd52d7f8	-0.051475495
46	0xbe378f9f	-0.17925881
47	0xbcf98c3d	-0.030462379
48	0xbe863fc4	-0.26220524
49	0x3e3c4e99	0.18389358
50	0x3da5a55e	0.08088182
51	0xbe8017aa	-0.25018054
52	0xbe041141	-0.12897207
53	0xbe35cf82	-0.17754939
54	0xbe0401ef	-0.12891363
55	0x3d5f24d7	0.054478493
56	0xbe145842	-0.14486793
57	0xbd0e06be	-0.0346744
58	0xbc99d0ce	-0.018776324
59	0x3cb04826	0.021518778
60	0xbe8c9f0b	-0.2746509
61	0x3d69fd5a	0.05712638
62	0xbe08f78c	-0.13375682
63	0x3e925d4c	0.28586805
64	0x3e6aa8cf	0.22915958
65	0xbd30fdc3	-0.043210756
66	0xbe6df8c3	-0.23239426
67	0x3de02734	0.109449774
68	0xbd96e56c	-0.073679775
69	0xbe82845c	-0.25491607
70	0xbd3797f5	-0.044822652
71	0x3e4d075d	0.2002234
72	0x3cb0c3b4	0.021577694
73	0x3d08fe6b	0.033445757
74	0x3e652241	0.22376348
75	0x3e044921	0.12918521
76	0xbe0ea9a7	-0.13931905
77	0xbe878207	-0.2646639
78	0xbbcff49a	-0.0063462975
79	0x3e012dc2	0.12615111
80	0x3e23a7af	0.15981935
81	0xbe0508c1	-0.1299162
82	0x3e477e82	0.19481853
83	0x3e03711c	0.12836117
84	0x3d848db0	0.06472337
85	0x3d29076d	0.041266847
86	0xbd8c9554	-0.068644196
87	0xbd2e6d07	-0.042584445
88	0xbaad4de7	-0.0013222069
89	0xbd3d6c43	-0.046245825
90	0xbd2013e3	-0.039081465
91	0x3e31dbcd	0.17369004
92	0x3e8d02a2	0.2754107
93	0xbdf5e300	-0.120061874
94	0xbcdc56d5	-0.026896873
95	0x3e849035	0.2589127
96	0x3e31dc04	0.17369086
97	0x3e84ea8c	0.25960195
98	0x3db54622	0.088512674
99	0x3d5448a5	0.05182709
100	0x3ce51582	0.027964357
101	0x3d0bff86	0.034179233
102	0x3c78311b	0.015148426
103	0x3e3cb758	0.18429315
104	0xbe51623c	-0.2044763
105	0xbcd7603a	-0.026291002
106	0x3e528ac2	0.20560744
107	0x3e79d3c2	0.24397185
108	0x3e35196d	0.1768548
109	0x3e1c35de	0.15254924
110	0xbe8d37d6	-0.27581662
111	0x3c097716	0.008390209
112	0x3e74575d	0.23861451
113	0x3db48ac8	0.08815533
114	0xbe71cf9a	-0.2361435
115	0xbe4fe87c	-0.2030353
116	0xbe715c22	-0.23570302
117	0xbe11df08	-0.14245236
118	0xbda1df35	-0.079039015
119	0xbdc1ca2d	-0.0946239
120	0xbd57ecc7	-0.052716043
121	0x3d549537	0.051900115
122	0xbde839c2	-0.113391414
123	0xbd20c4a1	-0.03925002
124	0x3e5f7ffb	0.21826164
125	0x3e48ae14	0.19597656
126	0xbd91c459	-0.071175285
127	0x3e92f894	0.28705275
128	0xbe881557	-0.2657878
129	0x3d1a6b64	0.037700072
130	0xbe91f4fd	-0.28507224
131	0x3dc2c2e7	0.09509831
132	0x3e484849	0.19558825
133	0x3e73d8da	0.23813191
134	0x3dc1a80e	0.09455882
135	0x3e289b5b	0.16465513
136	0x3e6e46c7	0.23269187
137	0x3e3eed0e	0.18645117
138	0x3e429a03	0.19004063
139	0x3e9040e1	0.281745
140	0x3dc31fb2	0.0952753
141	0x3e5f6be6	0.21818504
142	0xbe58af71	-0.21160676
143	0xbe16ccec	-0.14726609
144	0xbdce6149	-0.100771494
145	0x3e49d5b8	0.19710433
146	0x3e9316f7	0.28728458
147	0xbe4c8766	-0.19973525
148	0x3e684c34	0.22685319
149	0xbe4f9707	-0.20272456
150	0x3cd4fe67	0.026000215
151	0xbe4bf3b7	-0.19917189
152	0xbd9fce89	-0.07803065
153	0x3d814f3a	0.063139394
154	0xbe88f6d2	-0.2675081
155	0x3dbb2b74	0.091391474
156	0x3d5776d1	0.052603547
157	0x3de790c1	0.113069065
158	0xbdcf57e3	-0.10124185
159	0xbdee0248	-0.11621529
160	0x3df1b1ec	0.11801514
161	0x3e8c04a0	0.2734728
162	0x3e269050	0.16265988
163	0xbe8599ca	-0.26093894
164	0x3dff994e	0.124804124
165	0xbcb43031	-0.021995636
166	0x3dbe3995	0.09288327
167	0x3e8f1fc4	0.27953923
168	0x3e8299f4	0.25508082
169	0x3e00443d	0.12526031
170	0xbe30c29a	-0.17261735
171	0xbd681833	-0.056663703
172	0x3e407434	0.18794328
173	0x3def2bd1	0.11678279
174	0xbe9205e4	-0.2852012
175	0x3c1be24e	0.009514404
176	0x3e458070	0.19287276
177	0xbe182729	-0.14858688
178	0x3e7e3cee	0.2482793
179	0x3ca07212	0.019585643
180	0x3ac286c5	0.001484119
181	0xbe871519	-0.26383284
182	0xbd8e8852	-0.06959595
183	0xbe8f2828	-0.27960324
184	0x3c5aaadf	0.013346403
185	0xbe45a998	-0.19302976
186	0x3e02c747	0.12771331
187	0xbe3e72b2	-0.1859844
188	0xbe498d47	-0.196828
189	0xbd218331	-0.039431754
190	0x3e35654d	0.17714424
191	0xbe3efdc4	-0.18651491
192	0xbdc5101c	-0.09622213
193	0x3e91a7f2	0.28448445
194	0x3c22bde2	0.009932967
195	0x3dabbeb8	0.08385986
196	0xbe6ac09f	-0.22925042
197	0xbe6f3a1b	-0.23362009
198	0x3d4b5913	0.049645495
199	0xbd722221	-0.05911458
200	0xbe43c866	-0.19119415
201	0x3e7e7bc7	0.24851905
202	0x3e34e7c1	0.17666532
203	0xbe80caf1	-0.25154832
204	0xbe42aad8	-0.19010484
205	0x3da1b743	0.078962825
206	0xbd9d4635	-0.076794066
207	0xbe2f5e43	-0.17125802
208	0xbe1d1e43	-0.15343575
209	0xbd33d09b	-0.043900114
210	0x3e12402a	0.14282289
211	0x3d96f752	0.07371391
212	0x3e49050d	0.19630833
213	0x3e2e3adf	0.17014645
214	0xbe808cd0	-0.2510743
215	0x3de94856	0.1139075
216	0xbe349c01	-0.17637636
217	0x3e523ca1	0.2053094
218	0x3ddca4f4	0.1077365
219	0xbe448170	-0.19190001
220	0x3e4f1e7f	0.20226477
221	0xbe4cfbe8	-0.2001797
222	0x3d0d99e0	0.034570575
223	0xbd23a178	-0.03994891
224	0xbe79aeca	-0.24383083
225	0xbc96c2c8	-0.018403426
226	0x3e8af795	0.27142015
227	0x3e84f6bb	0.2596949
228	0xbe8bf5a7	-0.27335855
229	0xbe80e6d8	-0.2517612
230	0xbe91b4eb	-0.28458342
231	0x3e411d69	0.18858875
232	0x3e4fc06c	0.20288247
233	0x3d286c72	0.041119047
234	0xbddf69b0	-0.1090883
235	0x3e35a05f	0.17736958
236	0x3dc813f9	0.097694345
237	0x3e819b99	0.25314024
238	0xbc940f55	-0.018073717
239	0x3bfab369	0.007650782
240	0xbd3b4a32	-0.045725055
241	0x3c34ae6a	0.011027912
242	0x3e30b126	0.17255077
243	0xbe90249f	-0.2815294
244	0x3d37beed	0.044859815
245	0xbd370cda	-0.04468999
246	0x3dd3139e	0.10306476
247	0xbe394e4f	-0.18096279
248	0xbce011c5	-0.027352223
249	0xbd74a424	-0.05972685
250	0x3d85af29	0.0652755
251	0xbe5c9253	-0.21540193
252	0x3e8c5c3a	0.27414113
253	0xbde818d4	-0.113328606
254	0xbd6cd405	-0.057819385
255	0x3e271b72	0.16319063

network.0.bias f4 [128]
0	0xbdf1c01f	-0.11804222
1	0x3dccee80	0.10006428
2	0x3e88108b	0.2657512
3	0x3d607e99	0.054808233
4	0x3e4211e2	0.18952134
5	0x3e396918	0.18106496
6	0xbe51925b	-0.20465986
7	0x3e1d4838	0.1535958
8	0x3e852ea8	0.26012158
9	0x3e7a51fb	0.24445336
10	0xbd84fddc	-0.06493732
11	0xbe61586c	-0.22006387
12	0x3ccdeded	0.025137866
13	0x3e30a68a	0.1725103
14	0xbdb49ba2	-0.08818747
15	0xbd9e75f2	-0.0773734
16	0x3e933a22	0.2875529
17	0x3e5dc098	0.216555
18	0xbe42dd64	-0.19029766
19	0xbe3b29e9	-0.18277706
20	0x3c9c3d2b	0.019072136
21	0x3d0b671a	0.034033872
22	0xbe51eef5	-0.20501311
23	0xbdf8eca8	-0.121545136
24	0xbe643ee8	-0.22289622
25	0xbdcfd7a9	-0.10148556
26	0x3e6d971a	0.23202172
27	0x3dcae429	0.09906799
28	0x3e8fd5f0	0.2809291
29	0x3e7f6239	0.24939813
30	0xbe03a7b0	-0.12856936
31	0xbe2d9cb6	-0.16954312
32	0x3e6799c9	0.22617258
33	0x3de96c50	0.11397612
34	0x3dbb92e8	0.091588795
35	0xbdae968f	-0.085248105
36	0x3d5791a1	0.052629117
37	0xbdc06a5f	-0.09395289
38	0x3e8d8630	0.2764144
39	0x3bc15ad6	0.005900721
40	0x3e918bf0	0.28427076
41	0xbde54f8d	-0.11196814
42	0xbe9024ab	-0.28152975
43	0x3e1e5b86	0.15464601
44	0x3e291da6	0.16515216
45	0xbe257e6c	-0.16161507
46	0xbda88b07	-0.08229642
47	0xbd3cb174	-0.04606767
48	0xbbd87941	-0.0066062515
49	0x3e47ebba	0.19523516
50	0x3c8a93b8	0.01691614
51	0xbe568661	-0.20949699
52	0xbd475044	-0.04866053
53	0xbddbd9fb	-0.10734936
54	0xbd09700d	-0.033554126
55	0xbd892642	-0.0669675
56	0xbe055149	-0.13019289
57	0x3df5a4aa	0.11994298
58	0xbe2ea0c1	-0.1705351
59	0xbe7d91cd	-0.2476265
60	0xbe278e9b	-0.16362993
61	0xbabe1d79	-0.0014504633
62	0xbe818594	-0.25297225
63	0xbe755363	-0.23957591
64	0xbe369384	-0.1782971
65	0x3e5884b6	0.21144375
66	0x3e57d778	0.21078289
67	0xbde53b86	-0.11192994
68	0x3e08e33b	0.13367932
69	0xbd06aa33	-0.03287716
70	0x3e4b7235	0.19867785
71	0x3e334ab7	0.1750897
72	0x3e5b857d	0.2143764
73	0x3e2108d7	0.15726028
74	0xbd1a912b	-0.0377361
75	0x3d179aa4	0.03701271
76	0x3e56828b	0.20948236
77	0xbe69ed0b	-0.22844331
78	0x3e86cec6	0.2632963
79	0x3e1e9d19	0.15489615
80	0x3d8e651f	0.06952881
81	0x3dedc5ad	0.11609969
82	0xbd633048	-0.055465966
83	0xbe12e7fe	-0.1434631
84	0x3e3be347	0.18348418
85	0xbd89b53e	-0.06724022
86	0x3d60ba92	0.054865427
87	0x3c7aa998	0.015299223
88	0x3e0cd94d	0.13754769
89	0x3dd5f3fe	0.104469284
90	0xbe7c375d	-0.24630494
91	0x3dd5e35b	0.10443755
92	0xbd850083	-0.06494238
93	0x3d2bb060	0.04191625
94	0xbda38127	-0.07983618
95	0x3cc7cb19	0.024388837
96	0x3d6cdc48	0.057827264
97	0xbe058871	-0.1304033
98	0x3e370c7d	0.17875858
99	0x3dcb71cb	0.09933814
100	0x3dce1227	0.10062056
101	0xbe242b5b	-0.16032164
102	0xbe93a574	-0.28837168
103	0xbd4c94be	-0.04994654
104	0xbe0233f7	-0.12715136
105	0xbd7b10fa	-0.061295487
106	0x3e8fc126	0.28077048
107	0xbda0f63a	-0.07859464
108	0xbd7f6038	-0.06234762
109	0xbbe84ed4	-0.007089475
110	0x3b62b33f	0.0034591702
111	0xbd5b6461	-0.053562526
112	0x3e8eee8d	0.27916375
113	0x3e01151c	0.12605709
114	0xbe0d5a80	-0.13804054
115	0x3cbe772e	0.023250189
116	0x3d31ff1e	0.04345619
117	0x3e057711	0.13033701
118	0x3e48ba72	0.19602373
119	0xbcd399be	-0.025830146
120	0x3e499021	0.19683887
121	0x3d225f33	0.03964157
122	0x3e90f1e7	0.28309557
123	0xbc57c646	-0.013169831
124	0xbe635710	-0.2220118
125	0xbe80ef17	-0.2518241
126	0x3db8121a	0.089878276
127	0x3e6c836b	0.23097007

network.3.weight f4 [128, 128]
0	0x3c5f1a13	0.013617056
1	0x3d74393b	0.05962489
2	0xbd1776a7	-0.03697839
3	0xbdb307b2	-0.08741702
4	0x3d0e00e9	0.034668837
5	0x3d86e0e4	0.06585863
6	0x3d287162	0.041123755
7	0x3d10d158	0.035355896
8	0xbc90a630	-0.01765737
9	0xbd66a91b	-0.056313615
10	0xbc954c6d	-0.01822492
11	0x3d28b84d	0.041191388
12	0xbc167667	-0.009183503
13	0xbbac492a	-0.0052577453
14	0x3d3935ad	0.045217205
15	0xbbdccee9	-0.006738533
16	0xbdb37de7	-0.08764248
17	0x3d84b704	0.0648022
18	0x3d03221d	0.032014955
19	0xbc56df13	-0.0131147085
20	0xbdb109aa	-0.086444214
21	0x3db3d6ef	0.0878123
22	0x3d99904b	0.07498225
23	0x3b569cc8	0.0032747258
24	0xbd5efb75	-0.054439027
25	0x3d3337e5	0.043754477
26	0x3cc15d46	0.023604047
27	0xbda00f61	-0.07815433
28	0xbd562942	-0.05228544
29	0xbcc9f9c5	-0.024655232
30	0x3d95cff7	0.07315057
31	0xbdadf357	-0.08493679
32	0xbce03720	-0.027370036
33	0x3d76b732	0.060233302
34	0x3d6feac1	0.05857349
35	0xbcc983c5	-0.024598965
36	0x3d95eedc	0.073209494
37	0xbd9ea407	-0.077461295
38	0xbcc30447	-0.02380575
39	0x3d8ab243	0.06772282
40	0xbb3e3bdb	-0.0029027376
41	0xbdae6d09	-0.085168906
42	0x3d2fc14b	0.042908948
43	0xbd8b5918	-0.06804103
44	0xbcb1cca4	-0.021704026
45	0xbd0715eb	-0.032979887
46	0xbd30c092	-0.0431524
47	0xbd890da5	-0.066920556
48	0x3d9864a3	0.0744107
49	0xbbe9121c	-0.0071127545
50	0xbdb36b44	-0.08760694
51	0x3d858d0e	0.06521045
52	0x3bde505f	0.0067844833
53	0xbcd7a09f	-0.026321707
54	0x3cac441b	0.021028569
55	0xbdb2fe1b	-0.08739873
56	0xbcf1ce72	-0.029517386
57	0x3bb82b0d	0.0056203664
58	0x3d4802e8	0.048830897
59	0xbb6da4a3	-0.0036261461
60	0x3d5a8fb6	0.05335971
61	0x3b1d9fef	0.0024051627
62	0xbc5350da	-0.0128976945
63	0xbd957ba8	-0.07298976
64	0xbba41e13	-0.005008468
65	0xbca6e0b8	-0.020370826
66	0xbda03635	-0.07822839
67	0xbbbcfd7c	-0.0057675224
68	0xbd8568d3	-0.06514134
69	0x3d06cf13	0.032912325
70	0x3d92e82d	0.0717319
71	0xbd8e0d12	-0.06936087
72	0xbd95d273	-0.07315531
73	0x3d8bd330	0.0682739
74	0x3b85b830	0.0040807948
75	0x3c59614d	0.013267827
76	0xbc582acb	-0.013193796
77	0x3d4c00e5	0.04980554
78	0xbd7fe465	-0.062473673
79	0xbd18783d	-0.037224043
80	0x3cd22542	0.025652532
81	0x3cc296b9	0.02375351
82	0x3c7497ad	0.01492874
83	0x3c69eb04	0.0142772235
84	0xbdb027e6	-0.0860136
85	0xbd2404b2	-0.04004354
86	0x3d70b14b	0.05876283
87	0x3d27b55e	0.04094445
88	0xbd9ba5f8	-0.076000154
89	0x3da62801	0.08113099
90	0xbc38e472	-0.011284934
91	0xbd26769e	-0.040640466
92	0x3d1ac1d8	0.03778252
93	0x3c8ac736	0.016940694
94	0x3d92b704	0.07163814
95	0x3cc32eaf	0.023825971
96	0x3d4cde30	0.050016582
97	0x3d5c65a1	0.05380786
98	0x3bb696c3	0.0055721714
99	0xbd322074	-0.04348798
100	0x3cd3a28b	0.025834342
101	0xbd0fc1a0	-0.035096765
102	0xbd835327	-0.064123444
103	0x3d38d982	0.045129307
104	0x3db20e1c	0.086940974
105	0x3d948c64	0.0725334
106	0x3d82bc82	0.06383611
107	0xbd8c5ad6	-0.06853263
108	0xbd2d1cf5	-0.042263944
109	0x3d9ff6b9	0.078107305
110	0x3d3574a4	0.04430069
111	0xbca8b724	-0.02059514
112	0x3d3f159d	0.04665147
113	0x3d81f360	0.06345248
114	0xbdb25e48	-0.08709389
115	0x3d7faac6	0.06241872
116	0x3d1e7679	0.038687203
117	0xbd884d65	-0.06655387
118	0xbd1ea15a	-0.038728096
119	0xbd317d6c	-0.043332502
120	0xbd7f4ab2	-0.062327094
121	0xbd517ab3	-0.051142406
122	0xbdaeedc7	-0.08541446
123	0x3d32e362	0.04367388
124	0xbd3ca209	-0.046052966
125	0xbd412416	-0.047153555
126	0xbd232b8f	-0.039836463
127	0xbd3b5bc0	-0.045741796
128	0x3c7f4110	0.015579477
129	0x3cf392ff	0.02973318
130	0x3d49804d	0.049194623
131	0x3be07a7b	0.0068505383
132	0xbd7f5fae	-0.062347107
133	0xbc420367	-0.0118416315
134	0x3c89dd3f	0.016829131
135	0x3be38b1a	0.0069440724
136	0xbb10b909	-0.0022082946
137	0x3c330e76	0.010928741
138	0x3d8fe9d3	0.0702702
139	0xbcf6a530	-0.030108064
140	0xbd7e18b2	-0.06203527
141	0xbd40d44b	-0.04707746
142	0x3d29803f	0.04138207
143	0xbd3bff9f	-0.045898076
144	0xbcd846f2	-0.026401017
145	0x3d7709af	0.06031197
146	0x3d28ee71	0.04124302
147	0xbcbe7c5c	-0.023252659
148	0x3cc29215	0.023751298
149	0x3d1d011c	0.038331136
150	0xbc9c1f77	-0.019057972
151	0xbd7acf70	-0.061232984
152	0xbd30f855	-0.043205578
153	0x3c52c0e9	0.012863376
154	0x3cf55128	0.029945925
155	0x3d2874a1	0.04112685
156	0xbd950b3e	-0.07277535
157	0xbd1ce96c	-0.038308546
158	0xbd455d33	-0.048184585
159	0x3d0f6b1e	0.035014264
160	0x3d096230	0.033540905
161	0xbda98638	-0.08277553
162	0xbce49b57	-0.027906103
163	0x3c2940e5	0.0103304135
164	0x3d93b20b	0.072116934
165	0x3da9f239	0.082981534
166	0x3d4e6fd6	0.050399624
167	0x3d1a2d63	0.03764094
168	0x3c26329d	0.010143903
169	0xbdaf7b33	-0.0856842
170	0xbbc298d2	-0.0059386278
171	0xbce9dcb8	-0.02854763
172	0x3b854c5b	0.00406794
173	0xbda300b5	-0.07959119
174	0xbd602fae	-0.05473297
175	0x3dacef31	0.0844406
176	0xbd238cbe	-0.039929144
177	0x3d9d1451	0.07669891
178	0xbd20e3b3	-0.03927965
179	0xbd979279	-0.07400984
180	0xbc79b2e5	-0.015240406
181	0x39bc1fa1	0.0003588172
182	0xbd3b477f	-0.04572248
183	0x3d32c02f	0.04364031
184	0xbd9eb993	-0.07750239
185	0xbc0a6294	-0.008446354
186	0x3cc541a2	0.024079148
187	0x3d99ee82	0.07516195
188	0x3da09e7c	0.078427285
189	0x3d623d3d	0.055234183
190	0xbd89dc6f	-0.067314975
191	0x3cb4812f	0.022034256
192	0xbd61554c	-0.055012986
193	0x3daf7720	0.08567643
194	0x3cbb2a7c	0.022847407
195	0xbd57cb2e	-0.052684
196	0x3d9e9d6a	0.07744868
197	0x3c85c64f	0.016329912
198	0x3aad8144	0.0013237377
199	0xbd681974	-0.0566649
200	0xbd818b5e	-0.0632541
201	0x3db108a5	0.08644227
202	0x3da79095	0.08181874
203	0x3d54b097	0.05192622
204	0xbd96c30f	-0.07361423
205	0x3dac9b0b	0.084280096
206	0x3c0a5311	0.008442656
207	0xbc7a8e19	-0.015292668
208	0x3cb35d8c	0.021895193
209	0x3ccd3082	0.025047544
210	0xbd2fa35d	-0.042880405
211	0xbc9d4177	-0.019196255
212	0x3d22b913	0.03972728
213	0xbcddde7c	-0.027083628
214	0x3d1afe1a	0.037839986
215	0xbd34112f	-0.0439617
216	0xbd19b3af	-0.037524875
217	0xbcb5f73e	-0.02221262
218	0xbd4eb4ca	-0.050465383
219	0x3d784fd9	0.060623024
220	0x3d84cc35	0.06484262
221	0xbb4975b7	-0.003074033
222	0x3da3c0b8	0.079957426
223	0xbb2e33a2	-0.0026581069
224	0x3d505831	0.050865356
225	0x3d5ed6db	0.05440412
226	0xbc2083f7	-0.009797088
227	0x3d83081e	0.063980326
228	0xbda6612b	-0.08124002
229	0x3ccc7800	0.024959564
230	0x3d046368	0.032321364
231	0x3d17bb44	0.037043825
232	0x3d403c9c	0.0469328
233	0x3d8035d3	0.06260266
234	0x3d9096e1	0.07060028
235	0xbb8e8946	-0.0043498604
236	0xb9fcd724	-0.00048225478
237	0xbd6308aa	-0.055428185
238	0xbd2ba4e8	-0.041905314
239	0x3c26a7a4	0.010171805
240	0x3c337317	0.0109527325
241	0xbdab3bd9	-0.083610244
242	0x3d4e4dd1	0.05036718
243	0x3da9e20d	0.08295069
244	0xbd003d71	-0.031308595
245	0xbcf1f58f	-0.029536037
246	0xbd3034d1	-0.04301912
247	0xbd1404db	-0.036137443
248	0xbd740c1c	-0.05958186
249	0x3d8b5ba4	0.068045884
250	0x3db12152	0.086489335
251	0xbb98aa3c	-0.0046589654
252	0x3cf437b5	0.02981172
253	0xbd8a6a27	-0.06758528
254	0x3bdc6752	0.006726184
255	0xbc19cc3c	-0.009387072

network.3.bias f4 [128]
0	0x3d9672c6	0.0734611
1	0x3d9cddee	0.07659517
2	0xbd80dc97	-0.06292074
3	0xbd826fd6	-0.06368987
4	0x3d17ad6c	0.037030622
5	0x3d94b789	0.07261569
6	0x3d98e1cf	0.074649446
7	0x3d779729	0.060446892
8	0x3d178282	0.036989696
9	0xbd59aed2	-0.053145237
10	0x3b126503	0.002233804
11	0xbd9bd1e2	-0.07608391
12	0x3aa01953	0.0012214578
13	0x3b27f236	0.0025626547
14	0xbc08cc15	-0.008349438
15	0x3d14166d	0.0361542
16	0xbd749563	-0.05971278
17	0x3db1f83e	0.086899266
18	0xbd8e73bf	-0.069556706
19	0x3bf444a2	0.0074544707
20	0x3da60503	0.08106425
21	0x3cf2cb6a	0.029638011
22	0x3bccbc86	0.0062480597
23	0xbc8e9a2d	-0.017407501
24	0x3d993f09	0.07482726
25	0xbc88d770	-0.016704291
26	0x3d8c24bc	0.06842944
27	0x3d29d840	0.041465998
28	0x3d8701df	0.06592154
29	0xbd125405	-0.03572466
30	0x3d966784	0.07343963
31	0x3cf2eb25	0.029653141
32	0x3d866b6b	0.06563457
33	0x3d8bb270	0.068211436
34	0x3c1ecb15	0.009691973
35	0xbd41bc83	-0.04729892
36	0xbbfd27ed	-0.007725707
37	0xbd527039	-0.051376555
38	0xbc90814f	-0.017639784
39	0xbd46adb1	-0.04850549
40	0x3d13c39b	0.036075216
41	0x3d85c71f	0.0653212
42	0xbb85a847	-0.004078898
43	0x3c502a7c	0.012705442
44	0xb9d8e370	-0.00041368185
45	0xbda26845	-0.07930044
46	0x3cadc0b5	0.021210054
47	0xbda29622	-0.07938792
48	0xbd1bd762	-0.038047202
49	0xbb9416e9	-0.0045193327
50	0xbda2a36a	-0.07941325
51	0x3d60d245	0.05488803
52	0x3c1a838d	0.009430778
53	0xbd7ba8c6	-0.06144025
54	0x3cd19f8c	0.025588773
55	0xbd1fa454	-0.038975075
56	0x3c831a61	0.01600379
57	0x3dad8fab	0.08474668
58	0x3d97385a	0.07383795
59	0x3d734cf0	0.059399545
60	0x3d932ce7	0.07186299
61	0x3d70f8f5	0.058831174
62	0x3d7047f5	0.058662374
63	0xbd1398d9	-0.03603444
64	0xbd559981	-0.052148346
65	0xbd9682bf	-0.073491566
66	0xbd01be2d	-0.031675506
67	0x3d5459c8	0.051843435
68	0xbd9eb9ff	-0.0775032
69	0x3ce81601	0.028330805
70	0x3db18f11	0.08669866
71	0xbd8fe82a	-0.07026704
72	0x3d675d08	0.056485206
73	0xbc5e6e1d	-0.013576058
74	0xba6001a7	-0.0008545168
75	0x3d783c45	0.060604353
76	0xbd0fe432	-0.035129733
77	0xbc3d49c3	-0.011553231
78	0xbcb921a8	-0.022599056
79	0x3ce8c230	0.028412908
80	0x3d85bcf7	0.06530183
81	0x3d9f3d1a	0.07775326
82	0xbda88a71	-0.082295306
83	0xbd98290b	-0.07429703
84	0x3d1a14c8	0.037617475
85	0x3d9e9375	0.07742969
86	0xbd8f8864	-0.07008436
87	0x3d95a0ef	0.07306086
88	0xbd6bf030	-0.057602108
89	0xbc9325eb	-0.017962417
90	0x3d64eb41	0.055888418
91	0xbbf46118	-0.0074578635
92	0xbd41a8d9	-0.047280166
93	0x3c346bd1	0.011012034
94	0x3c8e807a	0.017395247
95	0x3d1960de	0.037445895
96	0xbd23c155	-0.039979298
97	0x3a5fdd97	0.00085397944
98	0xbd863f6c	-0.065550655
99	0xbbfde5c9	-0.00774834
100	0xbd76afb5	-0.06022616
101	0x3c723270	0.014782533
102	0xbbdf4973	-0.0068141758
103	0x3cdfc05b	0.027313402
104	0xbd79e5c9	-0.061010156
105	0x3c9000e7	0.017578555
106	0xbda40af3	-0.08009901
107	0x3d11e86e	0.035622053
108	0xbd209982	-0.039208896
109	0x3d2c1f3d	0.04202198
110	0xbcabe2f8	-0.02098225
111	0x3d0ecaab	0.034861248
112	0xbd1b8726	-0.037970684
113	0x3d8edf6b	0.06976207
114	0x3c5da212	0.01352741
115	0x3cdf3be2	0.027250234
116	0xbd9a3957	-0.07530468
117	0x3d98acbb	0.07454821
118	0xbc8f70e5	-0.017509887
119	0x3d8f226b	0.069889866
120	0x3a1af785	0.0005911517
121	0x3d6113ca	0.054950513
122	0xbcb67cee	-0.022276368
123	0xbcbc4f94	-0.022987165
124	0xbd249788	-0.040183574
125	0xbd0cb3da	-0.034351207
126	0x3d0070dd	0.031357635
127	0xbd8c8e5c	-0.068630904

network.6.weight f4 [64, 128]
0	0x3cfe431f	0.031037865
1	0xbd02a1a7	-0.031892445
2	0x3c0d6170	0.008629188
3	0xbda6dd56	-0.08147685
4	0x3d4722d7	0.04861721
5	0xbd7a6349	-0.061129842
6	0x3d1ebfec	0.03875725
7	0x3db27751	0.08714164
8	0x3d89c425	0.06726865
9	0xbd8c062c	-0.06837115
10	0xbd6603c4	-0.056155935
11	0xbd8313bc	-0.064002484
12	0x3d27bcd6	0.040951572
13	0x3c9a635b	0.018846205
14	0x3daf9bd5	0.085746445
15	0xba1879b5	-0.00058164756
16	0xbb4ad553	-0.0030949905
17	0x3a89a540	0.0010501519
18	0xbda5b5f1	-0.08091343
19	0x3d3acd0c	0.045605704
20	0x3bb9570a	0.005656128
21	0x3d08970a	0.033347167
22	0x3d9e369f	0.07725262
23	0xbd96fcff	-0.07372474
24	0xbd02be56	-0.0319198
25	0x3c58dd40	0.013236344
26	0xbd14a165	-0.03628673
27	0x3d962ded	0.073329784
28	0x3c4e8605	0.012605195
29	0xbd531675	-0.05153509
30	0x3cbedb9f	0.023298083
31	0xbbba8e9c	-0.00569327
32	0xbd65b40c	-0.05607991
33	0xbda9e466	-0.08295517
34	0xbd5e7f73	-0.054320764
35	0x3cfe5779	0.03104757
36	0x3da340e1	0.07971359
37	0x3da68cb1	0.081323035
38	0x3c9a780a	0.018856067
39	0xbd85c979	-0.065325685
40	0xbbad41a0	-0.005287364
41	0xbb1436a4	-0.0022615576
42	0x3db4165b	0.087933265
43	0x3cfa3e37	0.030547244
44	0xbd6dd6b0	-0.05806607
45	0xbd989b75	-0.07451526
46	0x3d848936	0.064714834
47	0x3d279428	0.040912777
48	0xbd62c3bb	-0.055362444
49	0x3d98070d	0.0742322
50	0xbd944d04	-0.07241252
51	0x3d01456a	0.03156034
52	0x3cc56e12	0.024100337
53	0xbce7b78a	-0.02828576
54	0xbd40d88f	-0.047081526
55	0x3db07a09	0.08617026
56	0xbd810144	-0.062990695
57	0xbcefd138	-0.029274568
58	0x3c7d4a44	0.015459601
59	0xbd47d746	-0.048789285
60	0x3c8fe0a9	0.017563181
61	0xbd1269f6	-0.035745583
62	0xbb997461	-0.004683063
63	0xbda96da2	-0.08272864
64	0xbae58a57	-0.0017512542
65	0xbd16f0de	-0.036850803
66	0x3d065e15	0.032804567
67	0x3d9ef488	0.077614844
68	0xbdb291aa	-0.087191895
69	0x3c4fa25d	0.012672988
70	0xbdaa1970	-0.08305633
71	0xbbab557b	-0.005228696
72	0xbd9358b6	-0.07194655
73	0x3d96d7ae	0.073653564
74	0x3c42b5db	0.011884178
75	0xbda4b994	-0.08043209
76	0xbd2399de	-0.03994166
77	0xbd49c2f2	-0.04925818
78	0xbd3f4e23	-0.046705376
79	0xbd591e86	-0.053007625
80	0x3ccb85c0	0.02484405
81	0xbd64069a	-0.05567036
82	0xbd94f1f1	-0.07272709
83	0x3d9b45a3	0.075816415
84	0x3d523081	0.05131579
85	0x3d88de58	0.06683034
86	0x3d2b9dd0	0.04189855
87	0xbd889bb2	-0.066703215
88	0xbd98e7bf	-0.07466077
89	0x3da25268	0.07925874
90	0x3d4e77fa	0.050407387
91	0xbd5683e4	-0.052371874
92	0xbc6666f5	-0.014062633
93	0xbceb4f0b	-0.028724214
94	0x3d079091	0.033096854
95	0xbd64db11	-0.05587298
96	0xbc5bfa56	-0.013426384
97	0x3d22f730	0.039786518
98	0xbd35b4c1	-0.044361833
99	0x3d082378	0.03323695
100	0x3d98d55e	0.074625716
101	0xbd4a5c82	-0.04940463
102	0xbd8fa85e	-0.07014535
103	0x3d50cee0	0.05097854
104	0xbd053e91	-0.03253037
105	0x3d9e84a6	0.077401444
106	0xbd2f4c47	-0.042797353
107	0x3d1979db	0.037469726
108	0xbcb29d0a	-0.021803398
109	0x3cf13fa8	0.029449299
110	0xbd2e65e7	-0.04257765
111	0xbd176458	-0.03696093
112	0xbdaa0452	-0.08301605
113	0xbd965e05	-0.073421516
114	0xbda99394	-0.082801014
115	0x3d558204	0.052125946
116	0x3d9791be	0.07400845
117	0x3da8b7a8	0.08238155
118	0x3c0a7606	0.008450991
119	0x3d03e5be	0.03220152
120	0xbd97fd20	-0.07421327
121	0xbd8f97aa	-0.070113495
122	0x3d82dabf	0.06389379
123	0xbb841485	-0.0040307664
124	0x3cd4f654	0.025996365
125	0x3cc04e8b	0.023474952
126	0x3d40d8a6	0.047081612
127	0xbc0f7052	-0.008754807
128	0x3c943e60	0.018096149
129	0x3d782ae4	0.06058778
130	0xbc389496	-0.011265894
131	0x3da72dd2	0.081630364
132	0x3d2163b8	0.03940174
133	0xbd651db3	-0.055936527
134	0xb9a0945c	-0.00030628114
135	0xbd89e03d	-0.06732223
136	0xbd24921e	-0.04017841
137	0xbd64b0fb	-0.055832844
138	0xbd921ebe	-0.0713477
139	0xbd815093	-0.063141964
140	0xbd1e32cd	-0.038622666
141	0x3d5156d1	0.051108185
142	0x3d8aefe0	0.06784034
143	0xbd869a24	-0.06572369
144	0xbd3a2d65	-0.045453448
145	0xbd80dfb2	-0.062926665
146	0xbd8d4ad9	-0.06899042
147	0x3d6d1d6a	0.05788938
148	0xbd5c1f76	-0.05374094
149	0x3d821715	0.06352059
150	0xbd6ab039	-0.057296965
151	0xbcdb34ca	-0.02675857
152	0x3d0b9136	0.03407403
153	0xbd81bafb	-0.06334492
154	0x3ca49b14	0.020093478
155	0xbc49dbce	-0.012320472
156	0xbdb2bda7	-0.087275796
157	0x3c6ecb0f	0.01457478
158	0x3bd94795	0.0066308477
159	0xbbc523e4	-0.0060162414
160	0xbd1e048d	-0.03857856
161	0xb9770325	-0.00023556927
162	0xbc5e8551	-0.01358159
163	0xbd488e4b	-0.048963826
164	0xbbc67654	-0.0060565863
165	0x3bfef183	0.0077802553
166	0xbbbc232a	-0.0057414966
167	0xbca3c2f8	-0.01999043
168	0x3d44be2a	0.048032917
169	0x3d48f897	0.0490652
170	0x3db3e2e1	0.08783508
171	0x3c96f38a	0.018426675
172	0x3d5d6e71	0.054060403
173	0xbd3b9c2f	-0.045803245
174	0x3ccd609d	0.025070483
175	0xbd86db5b	-0.065848075
176	0x3cfa24df	0.03053516
177	0xbd9659db	-0.07341357
178	0xbd8f63e2	-0.07001473
179	0x3c18046b	0.009278397
180	0x3d462697	0.048376646
181	0xbc1d510c	-0.009601843
182	0x3d6489b7	0.055795398
183	0x3cd5deca	0.02610721
184	0xbdb0c599	-0.08631439
185	0x3daa3294	0.08310428
186	0x3d19c3a7	0.037540104
187	0xbd470e1a	-0.048597433
188	0xbd843612	-0.064556256
189	0x3ce1d11e	0.027565535
190	0x3c87df28	0.016585901
191	0x3cff2593	0.031145846
192	0x3c63cc99	0.01390376
193	0x3d34faf0	0.044184625
194	0xbd58afee	-0.052902155
195	0xbcf56f19	-0.029960202
196	0xbba33eb8	-0.004981842
197	0xbd0a24c9	-0.033726487
198	0xbd38fd04	-0.04516317
199	0xbc90c185	-0.017670402
200	0xbd949957	-0.0725581
201	0xbce26eb6	-0.027640682
202	0xbca15451	-0.019693526
203	0xbd725444	-0.059162393
204	0xbc7f41c5	-0.0155796455
205	0x3d4baa0b	0.049722712
206	0x3c39ac56	0.011332592
207	0xbdb46190	-0.08807671
208	0xbd28413e	-0.041077845
209	0x3d97b737	0.07407992
210	0xbc680d47	-0.014163322
211	0x3db2c660	0.08729243
212	0xbbe1f3e6	-0.00689553
213	0xbd40a866	-0.047035597
214	0x3cc2feab	0.023803076
215	0x3ce61653	0.028086817
216	0xbd99bbf7	-0.075065546
217	0xbd33fd74	-0.043942884
218	0x3d316fbb	0.043319445
219	0xbc31a44a	-0.010842392
220	0x3da38235	0.079838194
221	0xbcea20a5	-0.02858002
222	0xbd8e13a4	-0.0693734
223	0xbd908f9f	-0.070586435
224	0x3da2c2c6	0.07947306
225	0xbd0a01d9	-0.03369317
226	0x3d744cf1	0.05964369
227	0xbca7e018	-0.020492598
228	0xbc8b94de	-0.017038759
229	0x3ceb1981	0.028698685
230	0xbd1ce31a	-0.03830252
231	0x3bf4d526	0.0074716983
232	0xbc655111	-0.0139963785
233	0xbd3521a2	-0.044221528
234	0xbc92a1f5	-0.017899493
235	0x3d9d8d82	0.07693006
236	0x3d2437fc	0.040092453
237	0x3d35b8f1	0.044365827
238	0xbd101757	-0.03517851
239	0xbcf637a1	-0.030055823
240	0xbd9fdb89	-0.07805545
241	0x3ae75760	0.0017649941
242	0xbb161d22	-0.0022905548
243	0x3b8d22c5	0.0043071234
244	0xbdb2b4dd	-0.08725903
245	0x3be49fef	0.0069770734
246	0x3d32ec6f	0.043682512
247	0xbd810540	-0.062998295
248	0x3da2db29	0.07951958
249	0xbd56df10	-0.052458823
250	0x3cbbe205	0.022934923
251	0xbdb0d5e6	-0.08634548
252	0xba538b30	-0.0008069752
253	0xbda12dc6	-0.07870059
254	0x3d04de25	0.032438416
255	0xbc861669	-0.016368108

network.6.bias f4 [64]
0	0x3cba24a8	0.022722557
1	0x3d5827ca	0.05277232
2	0x3cc484e1	0.023989143
3	0xbd174f25	-0.036940712
4	0xbd88dc12	-0.066826
5	0x3d626a8f	0.055277403
6	0xbacd6be2	-0.001567241
7	0x3d8a57d4	0.06755033
8	0xbc3d7f5f	-0.011566012
9	0x3d4a6a66	0.049417876
10	0x3cee15ff	0.029063223
11	0x3c1bec17	0.009516737
12	0xbba8aaf2	-0.0051473314
13	0x3d64275d	0.055701602
14	0x3d8fd8e1	0.07023788
15	0xbd13a629	-0.036047135
16	0x3afa84d1	0.0019113069
17	0x3c3c6049	0.011497566
18	0xbd6f81f8	-0.058473557
19	0x3c18f437	0.009335569
20	0x3c379295	0.0112043815
21	0x3cc7f95c	0.024410896
22	0xbc8c8e6f	-0.017157761
23	0xbca83bdd	-0.020536358
24	0xbd9f0134	-0.07763901
25	0xbd02c100	-0.03192234
26	0x3d3ca570	0.04605621
27	0xbc891be0	-0.016736925
28	0x3d4ff201	0.050767902
29	0xbda274ab	-0.07932409
30	0x3c771ce9	0.015082576
31	0x3b4e2dcf	0.003146041
32	0x3a81e0de	0.0009908935
33	0x3c9f7ed2	0.019469652
34	0x3c4a6403	0.012352946
35	0x3d904ac8	0.070455134
36	0xbda2c922	-0.07948519
37	0x3cfca670	0.030841082
38	0x3cd7b5e1	0.026331844
39	0x3c9da279	0.019242512
40	0xbd6b6afc	-0.057475075
41	0xbcfba18f	-0.030716686
42	0x3c3d209e	0.011543421
43	0x3d8f8873	0.070084475
44	0xbd3f0fc2	-0.046645887
45	0x3cfca11d	0.030838544
46	0x3d960762	0.07325627
47	0x3d1b1014	0.03785713
48	0xbd2de728	-0.042456776
49	0x3c8a85ab	0.016909441
50	0x3cd71da7	0.026259257
51	0x3b596b34	0.003317547
52	0x3d94998a	0.07255848
53	0x3d2760ae	0.040863685
54	0x3d980fd9	0.07424898
55	0x3c5f7726	0.013639247
56	0x3d693fbb	0.056945544
57	0xbcfeeb59	-0.031118082
58	0xbd77be7c	-0.060484394
59	0x3d2c1ec3	0.042021524
60	0x3db42f6e	0.08798109
61	0xbc9cf41b	-0.019159367
62	0x3d129dab	0.035794895
63	0x3cc02dd6	0.023459356

network.8.weight f4 [6, 64]
0	0xbc0fe390	-0.0087822825
1	0xbdb3f952	-0.087877885
2	0x3d85575c	0.06510803
3	0x3db30d80	0.08742809
4	0xbbc74460	-0.006081149
5	0xbdc4ac7c	-0.09603211
6	0xbc74c430	-0.014939353
7	0x3d018e44	0.031629816
8	0xbdc6c9bc	-0.097064465
9	0x3cadb4c0	0.021204352
10	0x3d63b240	0.055589914
11	0x3de41c22	0.111381784
12	0x3d19d544	0.0375569
13	0xbdd26d3c	-0.10274741
14	0x3ce2fcf8	0.027708516
15	0xbcf63918	-0.030056521
16	0x3d52c050	0.051452935
17	0x3c5bbd50	0.013411835
18	0x3d6f7ef4	0.05847068
19	0x3cbf7ec8	0.023375884
20	0x3d4562fc	0.048190102
21	0xbcaebc10	-0.02132991
22	0x3d9dcbf6	0.07704918
23	0x3dc2565e	0.094891295
24	0xbd99229a	-0.07477303
25	0xbc62fbb0	-0.013853952
26	0xbd0fcb64	-0.035106078
27	0xbd344dc8	-0.04401949
28	0xbd929db4	-0.07158986
29	0xbd9c4c04	-0.07631686
30	0x3dd8feb4	0.10595456
31	0x3dff5168	0.12466699
32	0xbd97e96c	-0.074175686
33	0x3c6fd6b0	0.014638588
34	0x3d0d4884	0.034492984
35	0xbca1d8e8	-0.01975675
36	0x3d6e0154	0.058106735
37	0xbc21d030	-0.009876296
38	0x3cabba30	0.020962805
39	0xbde6eb5e	-0.112753615
40	0xbc799cd0	-0.015235141
41	0x3d11e728	0.03562084
42	0x3d8dad82	0.069178596
43	0x3b96f700	0.0046070814
44	0x3dc837fc	0.09776303
45	0x3db4df5a	0.088316634
46	0xbdb8da82	-0.09026052
47	0x3d2d0c04	0.042247787
48	0x3de91282	0.11380483
49	0xbd14683c	-0.03623222
50	0x3d2c15e8	0.04201308
51	0xbcf1be80	-0.029509783
52	0x3ca5b0f0	0.020225972
53	0x3d601edc	0.05471693
54	0x3dd6f640	0.10496187
55	0x3d1b4198	0.037904352
56	0xbc92ae08	-0.01790525
57	0x3d094fec	0.033523485
58	0xbd2ec1b4	-0.0426652
59	0xbbe5e9a0	-0.0070163757
60	0xbddfa73a	-0.10920568
61	0xbde43cde	-0.11144422
62	0xbcf56610	-0.029955894
63	0x3d87db0e	0.06633578
64	0xbd5d9090	-0.054092944
65	0xbba7a460	-0.0051160306
66	0x3c0a80c0	0.008453548
67	0x3d9e1fd0	0.077209115
68	0xbd5d6d58	-0.054059356
69	0x3ce824e0	0.028337896
70	0xbd98abf8	-0.074546754
71	0xbdaf0df4	-0.08547583
72	0xbd23da74	-0.040003255
73	0x3d98649e	0.07441066
74	0xbddaa236	-0.106754705
75	0x3dd43f3e	0.10363625
76	0x3dce4ef4	0.10073653
77	0xbdd35174	-0.1031827
78	0xbbf75620	-0.0075481087
79	0x3ddb7526	0.10715704
80	0x3c2b1f70	0.010444507
81	0x3d83c5e0	0.06434226
82	0x3d11d228	0.03560081
83	0x3dfe0122	0.1240256
84	0xbdbee490	-0.093209386
85	0x3ad9b180	0.0016608685
86	0xbdae45ca	-0.08509405
87	0xbde4d546	-0.11173491
88	0x3c396fa0	0.011318117
89	0x3d2f8c24	0.042858258
90	0x3d9b53f0	0.07584369
91	0xbd9a775c	-0.07542297
92	0x3dd7fb60	0.10545993
93	0x3d1bdf4c	0.03805475
94	0xbd4fa904	-0.050698295
95	0xbd995800	-0.07487488
96	0xbd0121b8	-0.031526297
97	0xbdfe4702	-0.124158874
98	0xbd8daf48	-0.06918198
99	0xbdc258f2	-0.09489621
100	0x3d87aee2	0.06625153
101	0xbcd8ebd0	-0.026479632
102	0xbd8ddf1c	-0.0692732
103	0xbded5296	-0.11588018
104	0x3c381f60	0.011237949
105	0xbd9172b4	-0.07101956
106	0xbd8311e6	-0.06399898
107	0xbdd23d1c	-0.10265562
108	0x3deb5f7e	0.11492823
109	0x3d807e9a	0.06274147
110	0x3d4901f8	0.049074143
111	0xbdf6bf9c	-0.12048265
112	0xbd86f6f4	-0.06590071
113	0x3d16693c	0.036721453
114	0xbdfae7c2	-0.122512355
115	0xbd845724	-0.06461933
116	0x3df7107e	0.120636925
117	0x3de883c6	0.11353259
118	0xbdec345a	-0.11533423
119	0x3dbe01dc	0.092776984
120	0x3d46c528	0.048527867
121	0x3d152b48	0.03641823
122	0xbd5c1958	-0.053735107
123	0x3dd23020	0.10263085
124	0xbdc59b3a	-0.09648748
125	0x3d0e7340	0.03477788
126	0x3dadcb40	0.084860325
127	0x3dc53570	0.09629333
128	0xbde3a9c8	-0.111163676
129	0xbdb8b942	-0.0901971
130	0xbdb0d640	-0.08634615
131	0xba703100	-0.0009162575
132	0x3d264cac	0.040600464
133	0x3dd11146	0.10208373
134	0xbd827b48	-0.0637117
135	0xbd2b4ef0	-0.041823328
136	0x3dda1eb2	0.10650386
137	0xbdfe3c16	-0.12413804
138	0x3dd5bd7c	0.10436532
139	0xbc920ec0	-0.017829299
140	0xbd96aae0	-0.073568106
141	0x3d5f1af4	0.054469064
142	0x3cd9dd08	0.026594654
143	0xbd636184	-0.05551292
144	0xbdcd41b8	-0.100223005
145	0xbdce8cc6	-0.10085444
146	0x3c6f4390	0.0146035105
147	0xbcca8448	-0.02472128
148	0xbd98039e	-0.07422565
149	0x3da92a0e	0.082599744
150	0x3cdad020	0.02671057
151	0x3d9a8898	0.075455844
152	0xbcc307f8	-0.02380751
153	0x3df2fa18	0.11864108
154	0x3c8671c0	0.016411662
155	0x3df51e18	0.119686306
156	0x3d8f4698	0.069958866
157	0x3d6703f4	0.056400254
158	0xbd87646c	-0.06610951
159	0xbd9be3e2	-0.076118246
160	0x3db73c7e	0.08947085
161	0x3db3df6e	0.0878285
162	0xbdd6ff92	-0.10497965
163	0x3d674aa4	0.056467667
164	0x3db0375c	0.08604309
165	0xbdc8fd96	-0.09813993
166	0xbbaa5d20	-0.0051990896
167	0x3c5e34f0	0.013562426
168	0x3cec3040	0.028831601
169	0xbdfa67fc	-0.12226865
170	0xbddeee64	-0.10885313
171	0xbd67c09c	-0.05658017
172	0xbcf175c8	-0.029475108
173	0x3cfeac68	0.03108807
174	0xbc669080	-0.014072537
175	0x3c030ea0	0.007999092
176	0x3dcc2372	0.09967698
177	0x3c0a1b50	0.008429363
178	0x3d89ebd0	0.06734431
179	0xbdbec7fa	-0.09315486
180	0xbda4e1a8	-0.08050853
181	0xbd4770a8	-0.04869142
182	0x3ce2ec50	0.027700573
183	0x3cb35db0	0.02189526
184	0xbd30d4b8	-0.043171614
185	0xbcab8238	-0.020936117
186	0x3dfb576c	0.12272534
187	0x3db7cdb8	0.089747846
188	0x3cf252a8	0.02958043
189	0x3c98a8c0	0.018635154
190	0x3d9322c8	0.07184368
191	0x3d0b25ec	0.033971712
192	0x3c7a23c0	0.0152673125
193	0xbdc2c4ea	-0.095102146
194	0x3c224a80	0.0099054575
195	0xbdf8e916	-0.121538326
196	0xbdd6e606	-0.10493092
197	0x3dc5561a	0.09635563
198	0x3dfaaad2	0.12239613
199	0x3dc6510e	0.09683429
200	0xbdf1d1ba	-0.1180758
201	0xbdf7ba68	-0.12096101
202	0xbd917872	-0.07103051
203	0x3d8d2dd0	0.06893504
204	0x3dab40ba	0.08361955
205	0xbdc07c80	-0.093987465
206	0x3bcc0200	0.0062258244
207	0xbd71c39c	-0.05902444
208	0x3dc70918	0.09718531
209	0xbbbed220	-0.0058233887
210	0xbd6dc148	-0.058045655
211	0xbc6d32b0	-0.014477417
212	0x3da5c524	0.08094242
213	0xbdae0934	-0.08497849
214	0xbd3bece8	-0.04588023
215	0xbd895bec	-0.06706986
216	0xbdfb9534	-0.122843176
217	0xbdc20496	-0.09473531
218	0xbd849f2a	-0.06475671
219	0xbda3ffae	-0.080077514
220	0x3d2acc3c	0.04169868
221	0xbdb7a374	-0.08966723
222	0x3d9c9520	0.07645631
223	0xbc1a9c00	-0.009436607
224	0x3dd98034	0.10620156
225	0x3debb8b4	0.11509839
226	0x3d0e01ac	0.034669563
227	0xbdf80abe	-0.12111424
228	0x3de4d056	0.111725494
229	0xbdb4f266	-0.08835296
230	0x3da6aa48	0.08137947
231	0xbdb4028e	-0.0878955
232	0xbdd52adc	-0.104085654
233	0xbcc973a0	-0.024591267
234	0xbd8a5464	-0.067543775
235	0x3c9590f8	0.018257603
236	0xba395800	-0.0007070303
237	0x3dda2636	0.106518194
238	0xbd832a9c	-0.064046115
239	0xbda0c19e	-0.078494295
240	0xbd23357c	-0.03984593
241	0xbda256d4	-0.079267174
242	0x3d613220	0.054979444
243	0x3d2e9bf4	0.042629197
244	0xbdde05f4	-0.10840979
245	0x3ccc2030	0.024917692
246	0xbd85c866	-0.065323636
247	0xbd93f67e	-0.07224749
248	0xbd83e6e4	-0.06440523
249	0x3cb83db8	0.022490367
250	0xbd2dc22c	-0.042421505
251	0x3dccdde8	0.10003263
252	0x3d3c7dc4	0.046018377
253	0xbd485fa0	-0.04891932
254	0x3df90d48	0.12160736
255	0x3df06494	0.11737934

network.8.bias f4 [6]
0	0xbbe77000	-0.007062912
1	0xbbb8fbe0	-0.00564526
2	0xbd005f48	-0.031340867
3	0x3d0e9d2c	0.03481786
4	0xbca7f610	-0.020503074
5	0x3d4c6524	0.049901143
